models/network/autoencoder.pt (torch, 38390 bytes, 16 tensors)

encoder.0.weight f4 [64, 20]
000000 d5 be 00 3e 72 2a 89 3e bf c8 32 3e 94 08 4c 3e
       0.12572797 0.26790196 0.17459391 0.19925147
000010 71 34 d9 3e a6 03 3a bd f5 ae fe bd 26 1b 8c 3e
       0.42422822 -0.045413636 -0.12435714 0.27364463
000020 47 b6 20 be e7 b7 ea 3d bd 48 7a 3e d1 ec d4 3e
       -0.15694533 0.11460858 0.2444181 0.41586927
000030 36 d9 ad bd b4 6b a1 be ee 0f 9b 3d f0 24 b1 3d
       -0.08488695 -0.31527483 0.07571398 0.086496234
000040 8f 0c 39 3e bc af 39 be f0 00 3a 3e 2d 74 c4 be
       0.18071197 -0.18133444 0.1816442 -0.38369885
000050 60 52 07 3e b1 67 0e be ef c3 91 3d 49 7f e5 bd
       0.13215017 -0.13906743 0.071174495 -0.11205918
000060 68 62 f7 3d 72 5a c9 3d 16 ce 6f 3d 62 27 45 3e
       0.120793164 0.09831704 0.05854615 0.19253305
000070 c8 b4 79 3e af 52 87 3d 90 63 e9 bb de a4 b0 3e
       0.24385369 0.066075675 -0.0071224645 0.34500784
000080 73 15 11 bd 92 2c 05 3d d0 43 f2 3d a5 28 a7 be
       -0.035420846 0.03251321 0.118293405 -0.32648197
000090 62 13 e1 bd 30 ce b8 bd 86 07 4c be f8 31 f3 bc
       -0.10990025 -0.09023702 -0.19924745 -0.029686913
0000a0 13 bf 2b be ae bf 63 3e 0d b2 23 3e a2 6c e4 be
       -0.16772108 0.22241089 0.1598589 -0.4461413
0000b0 8b b0 21 3e 43 33 77 be a8 fa 60 be af da f9 3e
       0.15790002 -0.24140649 -0.21970618 0.48799655
0000c0 33 b0 07 3e 0f d3 31 be b3 58 63 3a 75 59 99 3e
       0.13250808 -0.17365669 0.000867258 0.29951063
0000d0 44 d0 0e 3e 08 3d c6 be 30 a4 88 3e 96 cb 82 ba
       0.13946635 -0.38718438 0.26687765 -0.0009978886
0000e0 c7 32 3f 3d 6f 5c 6e 3e 84 52 af 3e b6 ff d0 be
       0.046679284 0.23277448 0.34242642 -0.40820092
0000f0 4a de 1d be f0 d0 57 3d 22 1d 75 3d 61 1b df 3d
       -0.15416828 0.052689493 0.059842236 0.10893894
000100 35 5e 77 3e 10 f2 10 3e f2 4c 72 3e 22 b3 b8 bd
       0.24157031 0.1415484 0.23662165 -0.09018542
000110 ab 1a 7a 3d f7 2d 89 3e f1 14 28 bc 11 1a 57 3e
       0.06106059 0.2679288 -0.010258899 0.21006037
000120 e6 de ad be 13 7b 62 be 3b 61 6a be 58 01 e1 3d
       -0.3395912 -0.22117262 -0.22888653 0.109865844
000130 f6 13 01 3e f7 39 91 3e b0 f7 53 bd 2c d2 49 be
       0.1260527 0.28364536 -0.051749885 -0.1970908
000140 ff 44 c0 3e 81 7c f5 3d 9c 55 63 3e 53 97 84 be
       0.3755264 0.11986638 0.22200626 -0.258967
000150 5e 95 20 3c 6e 00 41 bd 39 7b d7 3d d6 5d e1 3d
       0.009801237 -0.04711955 0.1052155 0.11004226
000160 5d 81 ba be a1 45 45 be 61 d2 4a 3e c7 2c b8 3e
       -0.3642682 -0.19264843 0.19806816 0.35971662
000170 cf c5 5c 3e 8b b8 ae 3e fc 62 56 3e c2 4c 94 3d
       0.21559833 0.3412517 0.20936197 0.07241203
000180 38 4b 72 be 03 ef 88 3c f0 24 4b be 48 04 3e be
       -0.23661506 0.016715532 -0.1983831 -0.1855632
000190 3e 77 d0 3e d2 77 92 3b 7f d8 b8 3d 65 78 3e 3e
       0.40715975 0.00446985 0.09025668 0.18600614
0001a0 88 44 e6 3d 39 a7 fa be 6f 00 1d bd 25 f8 d3 bd
       0.1124354 -0.48955706 -0.03833049 -0.10350064
0001b0 f7 93 df bd 7f 77 19 be c6 20 12 3e df 0a ea 3e
       -0.10916894 -0.1498699 0.14270315 0.4571142
0001c0 b9 62 98 3d 70 08 a7 be 52 3a 05 bc 2b 47 cd bd
       0.07440705 -0.32623625 -0.00813158 -0.1002334
0001d0 74 7c 8a bd e8 f3 b2 bc 7d 33 3a be 98 df 2a be
       -0.06762019 -0.02184482 -0.18183704 -0.16686857
0001e0 86 ee c7 bc c3 20 c6 bd ad 5c 8a 3e 84 df 2a 3e
       -0.024405729 -0.096742176 0.2702383 0.16686827
0001f0 8d 90 75 3e e1 31 93 3e bb 51 a7 3d f0 1b 7f 3e
       0.23980923 0.28748992 0.08169886 0.24913001
000200 4a 7b 30 be d0 9a 89 3e bc 15 3b 3e b4 fb 3a 3e
       -0.17234531 0.26875925 0.1827001 0.1826008
000210 bd 3c 5f be 33 7a 92 be 91 db e2 bd 1d 8d 88 3e
       -0.21800514 -0.28608856 -0.11077035 0.2667016
000220 49 45 c9 bd f5 a8 98 be b6 e8 91 be 97 eb 61 be
       -0.09827668 -0.29816404 -0.28497857 -0.22062527
000230 6a 77 44 bd 97 3a 2b 3e fd 1f 7d 3e d3 ad 84 be
       -0.047965445 0.16721569 0.24719234 -0.25913867
000240 e3 41 39 3d 0e ac bd bd 5a dd 38 be a2 6d f8 3e
       0.04522885 -0.092613325 -0.18053189 0.48521143
000250 2d ec 57 3d 6e 3d 97 be 03 64 ed bc a2 bd 8e 3d
       0.05271547 -0.29539055 -0.028978353 0.06969763
000260 8a 6e 0c bc b3 93 b4 3d 2d 21 59 3e e7 70 e6 bd
       -0.008571276 0.08817234 0.21204062 -0.11252003
000270 47 b6 7c bd d2 6a 22 be dd c4 a9 be d9 33 2c be
       -0.06169727 -0.15861061 -0.33158007 -0.16816653
000280 00 0c a2 bb d4 dc b2 bd b0 93 e7 bc 10 36 8f 3c
       -0.004945278 -0.08733526 -0.028268665 0.017481834
000290 82 37 03 3e f6 2a 23 be 70 83 dd 3c ac ce 17 be
       0.12814143 -0.15934357 0.027040213 -0.14824933
0002a0 00 d1 62 3d a6 e6 ec bd 00 da e6 bc 9e 36 05 3e
       0.0553751 -0.1156743 -0.028180122 0.13009116
0002b0 8e b3 b7 bd a2 09 5b 3e ce 24 55 be a8 22 28 bd
       -0.08969794 0.21390393 -0.20814821 -0.041048676
0002c0 30 fd ef 3c a0 e6 2a 3d 30 b2 dc 3d 20 8c 56 bd
       0.029295534 0.041723847 0.10776174 -0.052379727
0002d0 a9 40 10 be 43 aa 95 3e fb 13 a8 3e 7d dd 8d 3c
       -0.14087166 0.29231462 0.32827744 0.017317528
0002e0 fc 39 bc 3e a9 2b dc bd 5d 62 6b bb 12 da 25 3f
       0.3676299 -0.10750515 -0.0035916783 0.64785874
0002f0 19 db c4 3d 95 92 f4 3d 86 3f 99 3e 9a 8c 2d be
       0.09612102 0.11942021 0.29931277 -0.16948166
000300 5c 32 a1 be fb 3a 1d bf d2 24 a8 bd 17 b9 ed 3c
       -0.31483734 -0.6141812 -0.08210148 0.029018922
000310 db fe 84 3e 85 b9 d3 bd 21 d1 00 bd 2b 28 e4 be
       0.2597569 -0.103381194 -0.03144944 -0.44561896
000320 f2 77 69 3e 38 ee aa 3d 84 f2 8e bd 81 57 53 3e
       0.22799662 0.08346218 -0.0697985 0.20638849
000330 3b af 83 bd 71 f2 ae 3e 49 42 89 3e 89 d8 96 3d
       -0.06429907 0.34169343 0.26808384 0.073655196
000340 f6 1f 57 bd c7 bc 11 be 72 6e 68 3e cd d6 34 3e
       -0.052520715 -0.14232169 0.22698382 0.17660065
000350 c6 e7 51 3e 8d 3b 6f 3e 08 0a a9 3d 8c c5 f6 3d
       0.20498571 0.2336256 0.082538664 0.12049398
000360 23 8d 72 3e 1b 50 96 bd d4 40 25 3e 50 46 0f be
       0.23686652 -0.07339498 0.16138011 -0.13991666
000370 c2 08 47 3d a5 75 07 be d1 a6 e9 bd ab 4b 54 3e
       0.048592336 -0.13228472 -0.11408771 0.2073199
000380 a6 21 9d 3c b6 6d a5 3b dc 03 93 3e 71 74 96 3e
       0.019181084 0.005048479 0.28713882 0.29385713
000390 4c c7 62 3e b0 11 94 3d b7 47 a7 bd b8 6e 35 bc
       0.22146338 0.07229936 -0.081679754 -0.011073761
0003a0 f1 92 ab 3d e7 f2 95 bb 4e 0a b8 3c 38 a9 0d 3e
       0.08377636 -0.0045760754 0.022465851 0.13834083
0003b0 10 63 05 3d 56 e2 ab 3d c3 19 ec 3b 32 b6 b8 3d
       0.032565176 0.083927795 0.0072052195 0.09019126
0003c0 73 69 95 3e 5d da 9d bd 35 f4 3a be f9 70 8e 3d
       0.29182014 -0.07707665 -0.1825722 0.069551416
0003d0 8d e1 81 be de 71 90 3e 77 d1 2d 3e 87 34 fe bd
       -0.25367394 0.28211874 0.16974436 -0.124123625
0003e0 74 39 d2 be b7 06 84 3e 78 d1 c5 3c c3 33 4e 3e
       -0.41059458 0.25786373 0.024147734 0.20136933
0003f0 25 d2 7a 3c 80 1d dc 3d 9f a8 62 bc 5a 62 f0 3d
       0.015308891 0.10747814 -0.013834148 0.11737509

encoder.0.bias f4 [64]
000000 72 be 64 3e 9b 43 b8 3d 19 9e 80 3e 6c 5e 4a bd
       0.22338274 0.0899727 0.2512062 -0.049406454
000010 1a 0a d0 3d 95 77 24 3a 8e 4f 38 3e 36 ff 8d 3e
       0.10158177 0.00062739226 0.17999098 0.27733773
000020 d0 56 5d be aa 45 4f 3e 0e 08 54 3b d9 f2 9e 3c
       -0.21615148 0.20241418 0.0032353434 0.019402908
000030 63 db 42 3e f2 6b 94 bd 3a 98 99 3d 19 2f e8 bd
       0.19029002 -0.072471514 0.07499738 -0.11337108
000040 aa db 19 3e 2d bd 9a bd 64 76 6b 3e 3a 54 59 3c
       0.15025201 -0.07555614 0.22994381 0.01326471
000050 1a c3 46 be d4 f0 10 3d 9c b3 5f 3e c0 65 40 be
       -0.19410363 0.03538592 0.2184586 -0.18788815
000060 23 44 dd 3c 56 5e 7c 3e d9 c1 65 3e 1b fc 84 3e
       0.02701003 0.24645361 0.22437228 0.2597359
000070 15 e9 ba 3c 18 a5 62 bd 80 b9 11 3e 51 07 10 bd
       0.02281622 -0.055333227 0.14230919 -0.035163227
000080 46 c9 c8 bd b8 de 14 3d 60 ef 60 3e 04 29 50 3e
       -0.09804015 0.036345214 0.21966314 0.20328146
000090 c1 27 78 3e 95 c5 8c 3e df d6 9e 3d 41 e4 50 3c
       0.24233915 0.27494493 0.07755827 0.0127497325
0000a0 51 c9 5a 3e 24 26 2f 3d e0 c4 fc 3d ac d3 b5 bd
       0.21365859 0.042760983 0.123422384 -0.08878264
0000b0 96 7d 04 3e 2b 63 5b 3d 8b 25 84 3d b6 8f 35 be
       0.12938532 0.05356137 0.06452473 -0.17730603
0000c0 79 2f b7 3d f0 af 97 3e c1 69 ec bc 91 44 23 3c
       0.089446016 0.29626417 -0.028859021 0.009965078
0000d0 a3 89 49 3e 1e 74 48 3e 11 83 24 3e de b6 a7 3a
       0.1968141 0.19575545 0.16065623 0.0012795588
0000e0 2c 24 04 3e b4 fd d1 bd 96 ef 3b be 79 46 89 3d
       0.12904423 -0.10253468 -0.18353114 0.06702895
0000f0 de 17 ad 3d c2 bb 03 bd 92 cb e0 3d 26 dd 80 3d
       0.08451818 -0.03216148 0.10976328 0.06292181

encoder.2.weight f4 [32, 64]
000000 ed 3a 98 bb f9 12 92 be 16 58 91 bc bc a3 96 3d
       -0.0046456964 -0.285301 -0.017742198 0.073554486
000010 93 a9 53 3f a7 f8 11 3c 06 13 37 3d c7 a0 b8 3d
       0.82680625 0.008909381 0.044695877 0.09015041
000020 c0 47 b1 bb 77 fd 17 3c 95 ac 75 3e 6b 85 4b 3e
       -0.0054101646 0.009276739 0.23991616 0.19875114
000030 02 bc 8e 3c f6 22 46 3e d5 d6 4f be 5e 0f 06 3c
       0.017423633 0.19349274 -0.20296796 0.008182375
000040 ea 27 79 be 6a 79 4b 3e c7 e1 d1 3d 1f 82 f2 bd
       -0.24331632 0.19870535 0.10248142 -0.11841225
000050 20 ed 05 3c da 7a 46 3c 74 86 11 3b 16 d8 f4 bd
       0.008174211 0.012114251 0.0022205384 -0.119552776
000060 98 8b 2e 3d 27 a9 81 3d 87 91 21 bc b5 b7 89 be
       0.042613596 0.063310914 -0.009861357 -0.2689797
000070 f0 a0 13 3e 1e 3f f9 be 72 1f c4 be 87 f3 07 bd
       0.14416862 -0.48680967 -0.3830524 -0.03319123
000080 58 48 2a be 5d 6c 35 3e 6e 3f 34 3e 66 04 22 be
       -0.1662916 0.17717119 0.17602322 -0.1582199
000090 f0 c5 25 3e 5b 70 ff bd b7 22 40 3e 4e 4e 18 3e
       0.16188788 -0.12472602 0.18763243 0.14873621
0000a0 f7 4e ec bb 64 9d bb 3d d9 8e 06 3e e7 1b 88 3e
       -0.007211562 0.09160879 0.1314043 0.26583788
0000b0 6b 35 e8 3d d3 77 3a 3e e2 22 c5 b9 b8 c2 b7 bc
       0.11338314 0.18209772 -0.00037600758 -0.022431716
0000c0 c9 24 92 bd df 6b 35 bd e6 81 92 3e 50 5f d0 be
       -0.071359225 -0.044292327 0.2861473 -0.40697718
0000d0 4f 44 80 3e ba 8a 11 3e 28 54 d3 bc dc 3e 52 3e
       0.25052115 0.14213076 -0.025796965 0.20531791
0000e0 aa 3e 27 be 79 75 81 be d0 7b 85 bd 9e ed d5 bd
       -0.16332498 -0.25284937 -0.06517756 -0.104457125
0000f0 a2 d9 8f 3e 1c 78 8f 3d 0d 60 98 3d 40 3e 67 be
       0.28095728 0.07005331 0.07440195 -0.2258234
000100 e8 11 3d 3c 51 18 f5 3b a3 02 81 be 40 ea 84 3e
       0.011539914 0.0074797054 -0.25197324 0.2595997
000110 91 b4 99 bd 14 f3 81 bd ac 40 1c 3e 3e 53 da bd
       -0.075051434 -0.063451916 0.15259045 -0.106604084
000120 78 6a 07 3d 61 92 32 3d 8c 25 39 3e ef 64 d4 bc
       0.03306052 0.04359663 0.18080729 -0.025927035
000130 c0 71 46 3e bc c8 e2 3d 07 58 bf 3e 73 5f a9 bd
       0.1937933 0.11073443 0.37371847 -0.082701586
000140 5e d1 a4 3e 16 1e ab 3d 00 d8 65 bd 87 79 aa 3e
       0.32190984 0.08355348 -0.056114197 0.33295843
000150 00 bf 6c 3b 08 55 08 bd f2 7c f5 3d b3 e6 e3 3d
       0.0036124587 -0.033284217 0.11986722 0.11127987
000160 4a b8 dd 3e 66 8d 42 be c5 f6 90 3d 25 a3 f6 3d
       0.43304664 -0.18999252 0.070783176 0.12042836
000170 a0 92 e2 3d 2a 5b 54 3d 27 aa fd 3d 1e 32 29 3e
       0.11063123 0.051844753 0.123859696 0.16523024
000180 84 6f 6e 3e 62 b1 44 3b 2c 92 ab 3d 03 30 b0 3d
       0.23284727 0.0030012955 0.083774894 0.086029075
000190 87 57 88 bd 55 c2 36 bd 97 da 29 bb 46 00 b3 3d
       -0.066573195 -0.044618923 -0.0025917643 0.087402865
0001a0 cc 7d ec bc 7b 28 62 bd 63 77 ec bd db f2 37 3d
       -0.028868578 -0.055214386 -0.11546209 0.04490934
0001b0 43 20 98 3d aa 75 01 be e2 2a 83 3e 80 9b 82 ba
       0.074280284 -0.12642542 0.25618654 -0.0009964556
0001c0 83 44 81 3d 29 0f a9 3d 83 e9 9a be 46 6c 04 3f
       0.06311896 0.08254845 -0.3025628 0.5172771
0001d0 f7 cd c9 3c 3c ae 09 be 2a 78 1d be cb 8e 2a 3e
       0.024634345 -0.13445371 -0.1537787 0.16656034
0001e0 13 37 7d 3e 4c 11 3e 3e 81 83 8e 3d 42 92 ed 3d
       0.2472804 0.18561286 0.06958676 0.11600162
0001f0 b1 03 24 3e 5b e1 bb 3d 4f ce 62 3d 35 3f 89 be
       0.16017033 0.091738425 0.055372532 -0.26806036
000200 65 d0 0f be 00 45 42 bc f1 7d 61 bd ff 23 87 bd
       -0.1404434 -0.011857271 -0.055051748 -0.065986626
000210 6f 60 8f 3d a5 98 1e be be e3 47 3d f1 8f e3 bd
       0.07000815 -0.15487917 0.048801176 -0.11111439
000220 6c f9 e5 bd 98 b5 27 3c b3 0e b5 bd 98 0e 90 3d
       -0.11229214 0.010236166 -0.08840694 0.070340335
000230 c6 e4 a0 3d 6a d8 8c 3c 5a 81 e7 3c 1e f4 ae bd
       0.07856135 0.017193038 0.028259922 -0.085426554
000240 3d 26 88 3d 99 f0 95 3d d8 33 f7 bd 17 dd a1 bc
       0.066479184 0.07321281 -0.12070435 -0.019758744
000250 08 87 c0 3d b9 1a 5b bd a9 0a a5 bd f4 cd 12 3d
       0.09400755 -0.05349228 -0.08058674 0.035840943
000260 6d 77 9a bd c9 dc 4d bd b1 ea 19 bd 8f 04 f2 bd
       -0.0754231 -0.050259385 -0.037577335 -0.11817276
000270 a2 d9 90 bd bb 66 6e bc 49 8f 39 3d 2e 6a e7 3c
       -0.0707276 -0.01455086 0.045302663 0.028248873
000280 4e 6f 91 3d 2d 1b b0 bd e1 31 7d bc fb bc d7 3d
       0.07101308 -0.08598933 -0.015453787 0.10534092
000290 91 83 1d bd f2 88 50 3c 69 af 8c 3d bc be dd bd
       -0.03845555 0.012727963 0.06869394 -0.10827395
0002a0 ea f2 d3 3c 4c a6 86 bd 72 e5 90 bb 9b db a5 3d
       0.025872666 -0.06574687 -0.0044218833 0.08098527
0002b0 e0 9e 0d bd 18 72 a9 3c 86 93 26 3b a0 4d 74 bd
       -0.034575343 0.020684287 0.002541752 -0.05964434
0002c0 f2 45 9d 3d 1d e6 9c bd cd 50 0b be 5a 44 32 3d
       0.07679357 -0.07661078 -0.13605042 0.043522216
0002d0 ca 7a 69 bd d9 fc cf 3b ac 43 81 3d ec 3c 2b bd
       -0.057001866 0.0063472805 0.063117355 -0.041806147
0002e0 b7 e4 f2 bc f9 2b 0a 3d 67 bf 18 3d 36 84 b0 3d
       -0.029650075 0.03373334 0.03729191 0.08618967
0002f0 f8 40 df bb c7 03 96 3d 46 e6 b5 3d bd 4a bf 3d
       -0.006813165 0.07324939 0.08881812 0.09340427
000300 cd 73 b4 bd b9 02 c7 bd 34 cf ea bd 5d 5f 5c 3e
       -0.0881115 -0.09717316 -0.11465302 0.21520753
000310 73 41 40 bd 88 4d 4b be d9 fa 5a 3e 0b e4 14 be
       -0.046937417 -0.19853795 0.21384753 -0.14540116
000320 40 48 8f 3b 2d 82 1b 3d 65 29 fd 3c 7c 41 25 3e
       0.0043726265 0.037965942 0.030903528 0.16138262
000330 0b bd bd 3d ea da 64 3e ce 5b 38 3e 7d bf 64 bd
       0.09264573 0.22349134 0.1800377 -0.05584668
000340 7f dd 33 3e ec e3 33 3e b2 8a ab bd 8e e5 6d bb
       0.17564963 0.17567414 -0.083760634 -0.0036300155
000350 70 94 75 3d e8 1b 3a 3e 41 19 68 3d e0 61 cb 3d
       0.059956014 0.18174708 0.05666471 0.099307775
000360 1a 6e 00 3e 57 b8 c3 3d d2 34 3b 3e 09 1f 0b 3c
       0.12542 0.095566444 0.18281868 0.008491286
000370 23 cf b9 b9 e1 e8 09 3e 1d 51 1a be e7 6c 59 3c
       -0.0003544028 0.13467743 -0.15070005 0.013270593
000380 3f c1 74 3e 16 51 01 3e 97 c0 36 3e 8e 75 01 be
       0.23901843 0.12628588 0.17846905 -0.126425
000390 05 a1 63 3d f6 86 b8 3c 9d 76 f7 3d 8e 52 6c 3d
       0.055573482 0.022525292 0.120831706 0.057695918
0003a0 05 56 3f 3c d4 db 54 3c c3 a5 a8 bc f2 1f 45 3e
       0.0116782235 0.012991864 -0.020586854 0.19250467
0003b0 e7 52 4c 3c 99 43 da bc 81 75 06 3e 90 ab 0b bd
       0.012470937 -0.026643561 0.13130762 -0.03409916
0003c0 64 fa 12 bd af 70 06 3d 77 14 69 be 4c 3a a1 3e
       -0.035883322 0.032822307 -0.22761713 0.3148979
0003d0 c2 a9 dd 3c f1 02 5c bc eb 79 58 be 88 c8 28 3e
       0.027058486 -0.013428436 -0.21140258 0.16482747
0003e0 05 28 ba 3d 43 d0 be 3d 08 83 52 bd 7c 58 20 be
       0.09089664 0.093170665 -0.051394492 -0.15658754
0003f0 92 5b 82 3c 99 76 41 3d 9c 4a 2c 3e e8 6b 64 be
       0.015912805 0.047232244 0.16825336 -0.22306788

encoder.2.bias f4 [32]
000000 11 cf 41 bd 18 3f c2 3d 62 a8 aa bc 17 be 9e 3d
       -0.047316615 0.094846904 -0.020832244 0.077511005
000010 f9 ac a3 3d 9d 50 e0 3d d1 04 68 bd 64 03 94 bd
       0.07991976 0.10952876 -0.05664522 -0.07227209
000020 9a 7c 2c 3e ac 76 7e 3d 82 68 61 38 7b 29 7e bd
       0.16844407 0.062124893 5.374151e-05 -0.062051278
000030 ae d0 ac bb 31 74 af 3d 9d 91 94 bd 95 4d d9 bc
       -0.0052739 0.085670836 -0.07254336 -0.026526252
000040 3e d1 ee 3d 37 71 08 3e c9 3b bd 3d af bf 08 3c
       0.116610035 0.13324438 0.09239919 0.008346482
000050 66 56 f7 3d 11 2b 7d bc 11 5a 0b 3e 76 f2 e4 3c
       0.12077026 -0.015452162 0.13608576 0.027947646
000060 82 93 e0 3d a6 45 ab bd b3 0b 76 bc 40 df 17 3e
       0.10965635 -0.08362894 -0.015017438 0.14831257
000070 8f 01 42 bd a9 28 b8 3c 74 a1 06 bd b5 11 f8 bc
       -0.047364768 0.022480326 -0.032868817 -0.03028188

encoder.4.weight f4 [16, 32]
000000 d5 ae ae 3d ab 25 4a 3e 23 32 2d be 52 a1 c5 3d
       0.0852944 0.19740932 -0.16913657 0.0964991
000010 b8 1a 7b 3e 31 ab e8 bd 3d 32 9e bd c5 ad 29 be
       0.24521911 -0.11360777 -0.07724426 -0.16570194
000020 e5 2a bb 3e 89 93 89 3d a0 b2 7b 3c dd 81 1b be
       0.36556163 0.06717593 0.015362412 -0.15186258
000030 5d 23 1f 3e 84 07 bb bc f8 aa 1e be ef 43 00 3e
       0.15540834 -0.022830732 -0.15494907 0.12525915
000040 5c a6 e8 bc 63 94 bf bd 9b 10 7a 3e 09 cf 85 3d
       -0.028399639 -0.093544744 0.24420397 0.065336294
000050 58 4a 38 be 5c 84 47 bd 55 05 07 bd 19 62 84 3d
       -0.1799711 -0.048710212 -0.03296407 0.06464023
000060 ed f4 7a 3e 2e a2 b5 bd b7 15 8f 3b 34 25 f7 3c
       0.24507494 -0.08868824 0.0043666023 0.030169107
000070 d1 5c 2b be 4e c4 b9 3d 57 ad c2 bd e5 26 36 3e
       -0.16734625 0.09070645 -0.09505718 0.17788275
000080 e3 cb af bd fe 05 ce 3e 6a 3d 0c be dd da a6 3d
       -0.0858381 0.40238947 -0.13695303 0.081472136
000090 46 11 60 bd 00 ab 76 3e 28 fd 25 3d ee aa ea bc
       -0.054703973 0.24088669 0.04052463 -0.028645959
0000a0 79 28 85 3e e4 87 b8 3d fa 3f 80 bc db e8 8c 3d
       0.2600744 0.09010294 -0.015655506 0.06880351
0000b0 19 c4 92 bd 8e 9c ba bd 0c 34 6b 3e 44 b4 c8 3e
       -0.07166309 -0.09111892 0.22969073 0.39200032
0000c0 63 7f b3 be a7 63 cd bd 36 cf 84 3e a2 b5 86 3d
       -0.35058126 -0.10028773 0.2593934 0.065776125
0000d0 3e 4d bb bc 48 af 1a 3e d3 8b 14 3e c3 8a 2a 3e
       -0.02286398 0.15105927 0.14506464 0.16654496
0000e0 01 75 37 3e 10 c9 7c bc 5d 7f 1e 3e 60 ec 79 39
       0.17915727 -0.015428796 0.15478273 0.00023834547
0000f0 2b dc 49 3d 60 9c 8b be 90 9f ad bd 31 2d 53 3e
       0.049282234 -0.27267742 -0.084777 0.20622708
000100 62 37 d4 3d f2 a8 f0 3d 9d 8b d6 bd ae 51 fa 3d
       0.10362126 0.11750974 -0.10475848 0.122226104
000110 08 1a a0 bc a5 bf bc bd 8c d5 33 be a4 55 16 3d
       -0.019543663 -0.09216241 -0.1756193 0.036702767
000120 e0 14 f3 3b 61 97 80 bd 0a 3e 08 be 3c a0 c6 bd
       0.00741826 -0.06278873 -0.13304916 -0.09698531
000130 ab 27 13 3e a6 00 5a bd b7 97 cb bd 0c 88 65 3d
       0.14370601 -0.053223275 -0.09941047 0.056037948
000140 30 93 ff 3c 14 b9 00 3d 32 81 92 bd 19 98 2b be
       0.031198114 0.031426504 -0.07153548 -0.1675724
000150 c0 2a d5 3c 2d c6 28 3e 53 de 1f be 2c 35 83 bd
       0.026021361 0.16481848 -0.15612154 -0.06406626
000160 fd 1f aa bd 6b 7f f9 bd 8d ac 15 3e d2 3a 08 be
       -0.083068825 -0.12182506 0.14616604 -0.13303688
000170 96 8f 24 be 3c 79 5d bd 20 c0 fc bb 4c ff 32 3d
       -0.16070399 -0.054070696 -0.007713333 0.0437005
000180 8b d4 33 bc 19 85 9f 3c 57 f7 83 bd 60 92 83 3e
       -0.010975967 0.019472646 -0.06443661 0.25697613
000190 3d f3 66 3e 14 c3 a0 3d 28 30 30 bd 10 1c 07 3e
       0.22553726 0.07849708 -0.043014675 0.13194299
0001a0 18 e6 83 3e ed 0a b1 3c 92 0a bf 3c 94 e7 e6 bd
       0.25761485 0.021611655 0.02332047 -0.11274639
0001b0 10 05 35 3d 57 eb 07 3e d0 53 94 3d 26 a3 3d 3e
       0.04419428 0.13273369 0.072425485 0.18519267
0001c0 a4 b2 cc 3d f0 f2 2b be 94 7a 8f 3b 91 4b a2 bc
       0.099950105 -0.16791892 0.004378626 -0.019811423
0001d0 6b 1e 21 be 20 fa 90 3e cf 24 57 be dc 59 55 3e
       -0.1573426 0.2831583 -0.21010135 0.2083506
0001e0 a3 4d 15 3e 19 0f 09 bf 84 cf 3a bd 5f 64 38 3c
       0.14580397 -0.5353866 -0.04560806 0.011254399
0001f0 30 1f 2c be eb 5a 73 3d 3f e1 a7 3d 8a b5 2d 3e
       -0.16808772 0.059412878 0.08197259 0.16963783
000200 5c 68 b0 bd 19 22 e9 3c df 13 33 3e 2e 94 56 3e
       -0.08613655 0.028458642 0.17488049 0.20954964
000210 55 34 11 be 5f ca c8 3d 7e b6 c9 bd a8 f7 62 bd
       -0.1418012 0.09804224 -0.09849261 -0.055411965
000220 01 be f0 bd eb 21 02 3d a1 e0 1d 3e b9 ea 81 bd
       -0.1175499 0.031770628 0.1541772 -0.06343598
000230 39 c2 b9 bd 17 69 9a 3c 5e 18 77 3d bb c7 13 3d
       -0.09070248 0.018848939 0.060325973 0.03607915
000240 5b 9a 87 be cd a7 ff 3d bb 13 5e 3d 42 66 18 3e
       -0.2648495 0.12483177 0.054218035 0.14882758
000250 62 73 8d 3d e4 58 02 be ef 02 4c bd db 2c 6d 3e
       0.06906773 -0.12729222 -0.049807485 0.23161642
000260 be 90 cb 3d 4d 56 ac 3d 8a 3f 2e 3e 95 4c 12 3e
       0.09939717 0.08414898 0.17016426 0.14287026
000270 23 8c 26 be 38 b0 ac 3d 15 42 30 3e e8 db 0f bd
       -0.16264395 0.084320486 0.17212708 -0.03512183
000280 13 b8 7d 3e 52 72 fa bd 04 b3 fd 3d 3b 3a ab 3d
       0.2477725 -0.12228836 0.1238766 0.08360716
000290 be 75 91 3e f4 ff 8b 3e ff 22 2f 3e 31 12 e8 3d
       0.28410143 0.27343714 0.17103194 0.11331595
0002a0 ca 40 16 be 32 ff af 3d 36 17 4a 3d e2 e6 3a be
       -0.14673153 0.085935965 0.049338542 -0.18252137
0002b0 b0 07 86 bd f9 5a cb b9 54 21 1a 3f 94 5e 88 bb
       -0.06544435 -0.00038786957 0.60207105 -0.004161665
0002c0 77 3f c1 3c 7a 9f 3c 3e 6e 9f 37 bd f3 e7 a2 bb
       0.023589833 0.1842021 -0.04482978 -0.004971498
0002d0 1c af a4 b8 95 9d da bd 47 88 5d bd cc 98 69 3b
       -7.852746e-05 -0.10674588 -0.054085042 0.0035644053
0002e0 19 16 8b 3a ec 22 02 bf 95 2b 00 3e c3 7d 6b 3e
       0.0010611444 -0.50834537 0.12516625 0.22997193
0002f0 7b 45 b0 3d 81 ff e5 3d 41 7e 70 3e 29 f4 2a 3e
       0.08607002 0.11230374 0.23485662 0.16694702
000300 70 53 2e 3e 13 c0 48 bd 32 6a 1a be f8 35 da bd
       0.17024016 -0.0490113 -0.15079573 -0.10654825
000310 2b 82 80 3e dc 6c 67 3d 6e e8 7f 3d b1 a7 2f be
       0.2509931 0.0565003 0.06247752 -0.17153813
000320 f2 05 92 3e bb e1 70 3d e9 3c a8 bd cd e5 72 bd
       0.2852016 0.058809023 -0.08214743 -0.059301186
000330 00 9a 07 bc 3a 89 a0 3d aa 46 38 bd 24 2d 6b 3d
       -0.008276463 0.07838674 -0.044989266 0.057416096
000340 dd 53 97 3e 46 c1 0c 3e 74 1c 80 3e 3a e9 88 bd
       0.2955617 0.13745603 0.25021708 -0.066851094
000350 de df 14 bd b0 dd 42 bb 07 ef b9 bd 56 f4 2a be
       -0.03634631 -0.0029734187 -0.09078794 -0.1669477
000360 85 89 aa 3e 25 f3 6a 3d 18 2d 91 3c ea 77 9c 3c
       0.33308044 0.057360787 0.017721698 0.019100148
000370 47 87 0f be 7f 8a e4 3d fc 9e 5b be e9 36 e7 3d
       -0.14016448 0.111592285 -0.21447366 0.1128977
000380 4d 54 b9 3d 96 e6 a4 bd 7d 86 75 bd af 7f 26 bc
       0.09049282 -0.08051793 -0.05994271 -0.010162278
000390 5e b6 6d be 4f 5d 1a 3d c1 95 04 3e 8b 1c ea bc
       -0.23214099 0.037686642 0.12947752 -0.028578063
0003a0 08 74 e0 3d ff ce 15 3e e4 dd 83 bd 66 47 d4 bd
       0.10959631 0.14629744 -0.06438807 -0.10365181
0003b0 e1 f6 8f 3d a3 64 a7 bd 8c f9 2a be 1b 41 7a 3e
       0.0702951 -0.08173492 -0.16696757 0.24438898
0003c0 9d 6b 40 be 63 e0 d3 bc e4 54 16 bd 44 22 7f 3d
       -0.18791051 -0.025863832 -0.03670205 0.062288538
0003d0 28 71 a6 bd f0 51 7e be 38 0d 34 3e 91 72 3b 3e
       -0.081270516 -0.24835944 0.17583168 0.18305422
0003e0 c3 a1 5e 3d 1f f3 4b be 3e bb 13 be 9e ec e6 3d
       0.054353487 -0.19916962 -0.14426896 0.112756
0003f0 26 fe 57 bd 42 a9 7a 3e 00 28 3b bd a3 39 21 3e
       -0.05273261 0.24478629 -0.045692444 0.15744643

encoder.4.bias f4 [16]
000000 89 0b 75 3d 77 00 7c be 49 b3 aa bd db 28 7d be
       0.059825454 -0.24609552 -0.08334977 -0.24722616
000010 16 31 07 bc ea 1b 33 3e f7 86 32 3d a7 02 14 3e
       -0.008251449 0.17491117 0.043585744 0.14454137
000020 c2 a4 21 3e ef ad 14 3c 56 d9 05 3e 32 23 97 3c
       0.15785506 0.009074672 0.13071188 0.0184494
000030 36 2f 21 3e 83 81 1f be 9e ff eb 3c c3 2e dc bd
       0.15740666 -0.15576749 0.028808411 -0.107511066

encoder.6.weight f4 [8, 16]
000000 53 2a 3d be fb 5c 9a be 1a d2 17 be 81 b3 4f be
       -0.18473177 -0.30149063 -0.14826241 -0.20283319
000010 8c de a4 3c 86 a9 7e be f2 e4 1a be 88 e1 87 be
       0.02012565 -0.24869356 -0.15126398 -0.26539254
000020 b8 db 39 3d a5 23 97 be ab 1a 4f 3e 86 56 a5 be
       0.045375556 -0.29519382 0.20225017 -0.32292575
000030 00 9e 19 be 4b 29 01 3d 9c c8 51 be 5e 4f 2d be
       -0.15001678 0.03153352 -0.20486683 -0.16924807
000040 b7 b7 e1 bc 0b 2f bf bd 00 44 3c 3c 56 f0 fb 3e
       -0.027553422 -0.093351446 0.011490822 0.492068
000050 87 96 03 be 7c 50 55 3e 70 17 64 3d ca fc a8 bc
       -0.1285039 0.20831484 0.055686414 -0.020628352
000060 c2 56 c9 bd 59 0e 45 be e7 01 b7 3d 2e e5 22 3e
       -0.09831001 -0.19243754 0.0893591 0.15907738
000070 2b fd 55 3e c5 48 74 bd 8a f9 f8 bd 58 23 5f bd
       0.20897357 -0.05963971 -0.12156971 -0.054477066
000080 ae 92 a5 3e d9 23 1a bd 80 38 81 3d a6 85 7d 3e
       0.3233847 -0.037631843 0.06309605 0.24758014
000090 0a dc a6 be 57 bf c9 3d 96 92 d2 3e 01 31 44 be
       -0.3258975 0.09850948 0.4112746 -0.19159319
0000a0 b2 cc 97 be ca 3a 02 be bd 35 9a 3e e5 3c d1 3c
       -0.29648358 -0.12717739 0.30119124 0.025541732
0000b0 61 93 9b be ed 81 5b be 62 19 78 be 72 ee 1c 3e
       -0.3038588 -0.21436282 -0.24228433 0.15325335
0000c0 7e 1f 99 be 58 d8 74 3d 80 6a db bd 91 10 39 3d
       -0.2990684 0.059776634 -0.10713673 0.045181815
0000d0 7b 63 ef 3b a3 9b b0 3e 96 b4 e5 bd 88 4a 8f 3d
       0.00730556 0.3449374 -0.11216085 0.069966376
0000e0 48 ef 5a 3e ce 7f 6d be 77 c2 94 be 7f 29 99 be
       0.21380341 -0.23193285 -0.29054615 -0.29914472
0000f0 ed 40 9a 3c a8 87 30 be 36 46 5d be 98 e7 92 bd
       0.018829787 -0.17239249 -0.21608815 -0.07173079
000100 73 a0 3e bb 59 1d e1 be 8a 68 37 be b8 ee 5e be
       -0.0029087334 -0.43967703 -0.17910972 -0.21770751
000110 89 a6 9f 3d b4 5c c7 bd 38 c1 a4 3d 90 01 14 3e
       0.07795436 -0.097344786 0.08044666 0.14453721
000120 d4 ed 26 bd 6a 50 2e 3e 17 93 52 3c 7b 76 4e 3e
       -0.040754154 0.17022863 0.012852452 0.20162384
000130 8c dc 6b bd 39 5d 6c 3e cc 63 89 bd f0 19 43 be
       -0.057583377 0.23082437 -0.06708488 -0.19052863
000140 33 c7 40 be 1c ba 28 3e a6 2a 0a be 51 ea fc bc
       -0.18825988 0.16477245 -0.13492832 -0.03087345
000150 34 70 5c 3e bf 7e 47 bb ea c6 06 be dc 41 33 be
       0.21527177 -0.0030440537 -0.13161817 -0.17505592
000160 21 52 aa 3e f4 3c 80 be a2 4c 02 3e a0 9c 1e be
       0.33265784 -0.25046504 0.12724546 -0.15489435
000170 25 47 1e 3e fd 63 90 bd e4 67 29 3d 72 e4 7c 3e
       0.15456827 -0.07050321 0.041358843 0.2469652
000180 06 ea 50 3d c9 3a 8c bd 18 b0 40 bd e4 22 01 3d
       0.051004432 -0.0684715 -0.047042936 0.031527415
000190 ea ef 51 be 2b 54 b1 3d 5a 5a 12 3f 76 57 88 be
       -0.20501676 0.08658632 0.57169116 -0.26629227
0001a0 0f 61 1a be b1 e8 76 bd 5b ce 7b 3e 7a 3f 73 be
       -0.15076087 -0.060280506 0.24590437 -0.23754683
0001b0 57 68 66 be fb 3d b1 bc 10 46 ae be 6e 8d 14 be
       -0.2250074 -0.021636 -0.34037828 -0.14507076
0001c0 ac 4b 93 be 3c 25 0a bf 2c 8e ad bd c6 31 97 bc
       -0.2876867 -0.53963065 -0.08474383 -0.018456351
0001d0 43 59 e8 bc 3b ef 61 3e e0 73 18 bd 70 c6 99 bd
       -0.028362876 0.22063915 -0.037219882 -0.07508552
0001e0 f3 ff b4 bd 4d 8d 89 be fc 74 92 be 7c 00 ac 3e
       -0.08837881 -0.26865616 -0.28604877 0.3359412
0001f0 68 8c 07 3e 38 ac ac 3e b8 8f 1b be 60 41 4d 3e
       0.13237154 0.33725142 -0.15191543 0.2004447

encoder.6.bias f4 [8]
000000 31 75 0b be d4 f8 54 be d4 15 62 be ea 62 8e 3e
       -0.13618924 -0.20798045 -0.2207864 0.2780984
000010 ce 89 0f 3e 7c 51 6c be fe 1b 8f bd 5f e5 0a 3e
       0.14017412 -0.23077959 -0.06987761 0.1356406

decoder.0.weight f4 [16, 8]
000000 74 0c c6 bc 65 f9 62 3e 24 67 29 be bc 2a dd 3e
       -0.02417586 0.22165449 -0.16543251 0.43196666
000010 36 f4 64 3e 61 f4 9f 3e eb 5c 18 3d 9b e5 b2 3e
       0.22358784 0.31241134 0.03719799 0.349408
000020 2f 37 86 be 77 2a f9 bd e2 53 8a 3c 8c db a9 be
       -0.26213977 -0.12166303 0.016885702 -0.33175313
000030 91 35 01 bf 1e 47 c6 3e 06 30 50 be 21 27 f1 be
       -0.5047236 0.38726133 -0.2033082 -0.47100165
000040 84 59 35 be 23 66 40 3d 49 00 c3 be bd 5b eb 3d
       -0.17709929 0.046972405 -0.38086155 0.11492107
000050 d6 d7 78 bd f5 bd a8 3e 49 9f a5 be 0e 71 d0 3e
       -0.060752712 0.32957426 -0.32348087 0.40711254
000060 2c b5 5a be db e4 70 3e 28 40 4f 3e 92 49 72 3e
       -0.21358174 0.23524801 0.20239317 0.23660877
000070 8a bc b7 be db 1a be bd 45 64 80 be bb 05 bb be
       -0.3588603 -0.09282466 -0.250765 -0.3652781
000080 c1 49 69 be 2f 02 f2 3e 7b 79 64 be 5d 53 dd be
       -0.22782041 0.4726729 -0.22311966 -0.43227664
000090 50 72 84 3e 10 f1 4b 3e 57 b7 1e be 27 da 88 bd
       0.25868464 0.19916177 -0.15499626 -0.06682234
0000a0 ab ed 71 be c8 f6 b7 3e 62 04 5c be dd 29 f4 3d
       -0.2362582 0.35930467 -0.21486047 0.11922047
0000b0 41 97 88 be 9c c2 04 be 35 96 ef 3b 52 ce 8d be
       -0.26677898 -0.12964863 0.0073116072 -0.27696472
0000c0 5c 9e dc bd 54 e3 90 ba c5 c8 87 be a1 53 8a be
       -0.10772392 -0.0011054077 -0.26520362 -0.2701693
0000d0 be 0b 7f be 17 78 05 3c e0 43 91 bd 50 c5 8c 3d
       -0.24906823 0.008146307 -0.07093024 0.06873572
0000e0 c8 a7 45 be 54 48 82 3a 22 7d 3a be 2f 0b 1b 3f
       -0.19302285 0.0009939768 -0.18211797 0.6056394
0000f0 f5 01 96 bd c6 8d cc 3e 17 61 bb bd a6 c3 8f be
       -0.07324592 0.39951915 -0.09149378 -0.28078955
000100 ca 28 b1 3d 6a ca 3a be f6 8d a9 be a4 cb ad bd
       0.08650358 -0.18241277 -0.3311612 -0.08486107
000110 cd 03 71 3e 7f 09 c3 3d ee dc d3 bd fb c5 b7 3e
       0.23536606 0.095232956 -0.10344873 0.35893235
000120 3f ac 9a be 94 c7 d9 3e 47 0d 88 3e 4a c0 c7 be
       -0.30209538 0.4253508 0.2657263 -0.39013892
000130 a2 3a 9b 3e 72 f8 00 3e 33 98 70 be e7 3d f0 3d
       0.3031817 0.12594774 -0.2349556 0.11730557
000140 1a 23 17 be ae 58 77 3e df 75 23 bd 74 19 df 3e
       -0.14759484 0.24154922 -0.039907333 0.43574107
000150 75 f5 9c 3c 7c 15 1a be 11 80 5e 3e 2b 7a 65 3e
       0.019160012 -0.15047258 0.21728541 0.22409885
000160 25 64 ba be c8 bb 8e 3d 08 0c 85 bd 88 ca 7c be
       -0.3640453 0.0696941 -0.064964354 -0.24686635
000170 a2 f2 6c 3e ce 85 81 be b6 3a f7 3d 88 1b bd 3d
       0.23139432 -0.25297397 0.12071745 0.09233767
000180 a8 f2 7f be 6d e3 8c 3d f5 07 0c 3f c2 6a e0 be
       -0.2499491 0.068793155 0.5469964 -0.4383145
000190 1c 74 a5 3e e7 6d 5a be 27 40 1f 3f c7 88 e8 3c
       0.32315147 -0.21330987 0.62207264 0.028385533
0001a0 fd ab 28 be 8c 7b 20 3e ed 7c 82 bd c6 e0 81 3e
       -0.16471858 0.1567213 -0.06371484 0.253668
0001b0 40 d0 28 be 4b 26 29 be 8f c4 6d be b2 bc 56 be
       -0.16485691 -0.16518514 -0.23219512 -0.20970419
0001c0 ef 6c 7d 3d 33 a8 a0 3e 1b 69 13 be 46 4d 24 3e
       0.061871465 0.31378326 -0.14395563 0.16045102
0001d0 aa b1 80 3e 2a 3f 61 bd ca ad 6e be b9 cc c6 3e
       0.25135547 -0.05499188 -0.23308483 0.38828066
0001e0 7d f7 9b be b9 f4 44 be b2 d3 89 be e2 1e 89 be
       -0.30462256 -0.1923398 -0.26919323 -0.26781374
0001f0 71 5e 58 3e 7e 94 b2 be 38 92 2a be 38 ac a9 3e
       0.21129777 -0.34878916 -0.1665734 0.33139205

decoder.0.bias f4 [16]
000000 df 27 8c 3e 2e d6 0f be 00 cc 71 3e 82 6a 0d be
       0.2737417 -0.14046547 0.23612976 -0.13810161
000010 68 10 ca be 58 1b 51 3e 4b 1e e1 3c b8 50 af 3e
       -0.39465642 0.20420587 0.027480265 0.3424127
000020 ef 92 08 3e dc 51 6b 3d f3 c8 af 3d 02 b7 12 3e
       0.133373 0.057451114 0.0858325 0.14327624
000030 75 fc 87 3d 2f f6 bb be 42 f0 b8 3e 39 5d 13 3e
       0.06639949 -0.3671126 0.36120802 0.1439103

decoder.2.weight f4 [32, 16]
000000 51 1e 93 3c ab 5d d4 bc df 3b ce 3d aa 65 39 3e
       0.017958792 -0.02592357 0.10070013 0.18105188
000010 58 c2 2f be cd fb 75 3e 49 ee a2 bd fc 76 b7 3d
       -0.1716398 0.24021836 -0.079556055 0.08958241
000020 0b b1 63 3d dd f0 be bc 16 a8 e9 3d f8 e0 1d 3e
       0.055588763 -0.023308212 0.11409013 0.1541785
000030 6b 3f f8 be 96 70 c6 bd 3c ee fc bc de b9 8f bd
       -0.48485884 -0.09689443 -0.030875318 -0.07017873
000040 d7 8e 47 3d 03 e2 b2 3e 96 10 d2 bd 89 3b 07 be
       0.048720207 0.34938058 -0.1025707 -0.13206305
000050 82 fa 41 bd 8c a3 a0 bd 32 22 e7 3d 14 8d a6 be
       -0.047358043 -0.07843694 0.11285819 -0.3252951
000060 35 e0 10 be 76 5f a8 3e c6 b0 81 be bd 9d 3f 3e
       -0.14148028 0.3288533 -0.2533018 0.18712516
000070 8a b2 83 3e 6e 89 29 be 60 b6 a7 3c 7b a4 92 3e
       0.25722152 -0.16556332 0.020472705 0.28641114
000080 d8 e7 13 3e bd 44 c9 3e 3d b4 c9 3d 9b a2 4a bd
       0.1444391 0.39310256 0.09848831 -0.04947148
000090 27 b5 8e be 67 4e 69 3e 9b fb 23 be fc c4 34 be
       -0.27872583 0.22783814 -0.16013949 -0.17653269
0000a0 2b 7b 3e be 2e d4 16 bd be b5 9e be 9e 69 32 3e
       -0.18601672 -0.036823444 -0.30998033 0.17423102
0000b0 7b 25 a8 bd b3 60 d8 bd ea aa 95 3d 36 ba d7 3d
       -0.08210274 -0.10565319 0.0730799 0.10533564
0000c0 f4 08 0f 3e 2a 72 ed 3d 26 00 70 bd 4b 62 f7 3d
       0.13968259 0.11594041 -0.05859389 0.12079295
0000d0 f8 45 aa 3c 0f 4f 5b 3e 4c ca 2e bd 82 16 65 be
       0.020785317 0.21416877 -0.042673394 -0.22371867
0000e0 9e 46 5c 3e 50 2d dd bd da 23 9e 3e f0 29 5c 3d
       0.21511313 -0.10799658 0.30886728 0.053750932
0000f0 29 4a 9f be 0b 7e 49 3e 92 b9 84 3e de 26 66 3d
       -0.31111267 0.19676988 0.2592283 0.05618941
000100 31 6f b2 3d f3 c1 c9 3e ec 81 d9 3d fb 55 cd bc
       0.08712614 0.39405784 0.10620484 -0.025065413
000110 4c 5a 1d bd 80 78 d5 bd c7 d0 54 3e 57 17 20 be
       -0.038416192 -0.10423374 0.20782767 -0.15633903
000120 e6 70 07 be dd 1a c6 bd 3c 04 45 be 1c 5f 76 be
       -0.13226661 -0.096730925 -0.19239897 -0.24059719
000130 7f d5 2b 3e 80 a5 63 bd ce bc 5b be 83 95 e4 3d
       0.16780661 -0.055577755 -0.21458742 0.111613296
000140 d1 06 ac bd f5 40 c2 3e 3c 5b 1d 3e a5 c2 d3 3e
       -0.083997376 0.37940183 0.15366834 0.4135944
000150 18 7c 48 3d 96 64 8f 3e ef e0 a0 bc 52 56 3f be
       0.04894647 0.28006428 -0.019638507 -0.18685272
000160 ab d8 95 bd c7 2f ff bd 46 a4 6d be bd f4 40 be
       -0.07316717 -0.12460285 -0.23207197 -0.1884336
000170 6d 8b 8a bd 87 36 1d 3e 17 06 04 3e 90 51 24 be
       -0.067648746 0.15352832 0.12892948 -0.16046739
000180 23 f1 17 3d c0 99 75 3e 8e 4e 64 bd a6 c8 69 3d
       0.0370952 0.23984432 -0.055738978 0.05707612
000190 8c 6b 81 3d 64 31 c1 bd ce d3 99 be a0 4a 94 3d
       0.06319341 -0.09433249 -0.30044407 0.07240796
0001a0 f0 2d a6 be 21 9d b3 3d 99 22 f4 3c ca 1d 06 3e
       -0.32456923 0.08770204 0.029801654 0.13097301
0001b0 f7 1b 71 bd 83 18 a4 3d 9f 7e b9 be d6 51 f2 bd
       -0.05886456 0.08012488 -0.36229417 -0.11832015
0001c0 0f 76 3b 3e e8 48 42 bd a7 50 ef 3d 63 3c d4 bd
       0.18306755 -0.04743281 0.11685305 -0.1036308
0001d0 f7 c2 4f bd 4e 27 a3 3d 19 6a 71 3e b4 c3 98 bd
       -0.050723042 0.07966481 0.2357563 -0.074592024
0001e0 b5 99 69 3e 17 c4 6c be e4 d7 a6 bd c5 9f 16 bd
       0.22812541 -0.23121677 -0.081466466 -0.03677346
0001f0 45 c3 af 3d d0 2b 57 be 2a e6 68 bc 68 73 8e 3d
       0.085821666 -0.21012807 -0.014215032 0.06955606
000200 5a d9 1d be 9b bb ab 3a 38 cd 02 be 8f 8a 54 be
       -0.15414944 0.0013102175 -0.12773597 -0.20755981
000210 78 ef dc 3d 61 6e 76 be 40 f1 59 3e ca 2b 5a 3e
       0.107878625 -0.24065544 0.21283436 0.21305767
000220 a0 f1 9a 3c 20 c3 81 be 5a a2 44 be 64 71 59 bd
       0.018914044 -0.2534418 -0.19202557 -0.053086653
000230 af 74 2b 3e ae 43 2f be 40 ec 75 3d d0 3e 27 3e
       0.1674373 -0.17115662 0.06003976 0.16332555
000240 33 2b 3d 3e 23 5e ae be 2a 68 51 3e e8 f3 b4 be
       0.1847351 -0.34056196 0.20449892 -0.35342336
000250 e1 a5 ae 3d e8 6c d0 bb 64 45 75 3e 64 06 66 3c
       0.08527733 -0.006360639 0.23952252 0.01403961
000260 50 3e 85 3d 0f 97 8b be 53 d6 d1 ba f2 42 19 3e
       0.06506026 -0.27263686 -0.0016009308 0.14966944
000270 84 88 ca bd 16 1f 5c 3e 17 a1 4b bd a9 65 55 bd
       -0.098893195 0.21496233 -0.049714174 -0.052098904
000280 7e bc b2 be 5e 2c 5d 3e be b0 15 be 6e 62 14 3c
       -0.34909433 0.21598956 -0.14618203 0.009056671
000290 21 0a a4 3d bb ab 2d bd f0 81 14 3e f0 aa 19 3d
       0.080097444 -0.042400103 0.14502692 0.037516534
0002a0 9e cd fa be 04 89 40 bd a1 d6 00 bf 9d be d1 3d
       -0.48984998 -0.04700567 -0.503275 0.10241435
0002b0 1b 8e 76 be 59 96 35 3e 47 48 02 bf a6 9d 10 3d
       -0.24077646 0.17733134 -0.50891536 0.035306595
0002c0 36 4d a3 3d 40 e0 6e bd 86 af 3d 3e 70 83 c1 be
       0.07973711 -0.05831933 0.18523988 -0.3779559
0002d0 5a 1c 1a be 38 3e 3f be f6 35 28 bd 17 f1 62 3e
       -0.15049878 -0.18676078 -0.041067086 0.22162281
0002e0 c7 32 44 3e 8b fe 7d bd ba db 56 3e 06 bb a8 bd
       0.19159995 -0.06201033 0.20982257 -0.08238797
0002f0 8c 7b a7 bd 19 e0 c4 bd 57 61 cc 3d 04 1c 11 be
       -0.081778616 -0.09613056 0.099795036 -0.14170843
000300 60 79 88 3e 71 75 4b bb 3c 68 d6 3c d1 f5 f5 bd
       0.26655102 -0.0031045342 0.02617275 -0.120097764
000310 70 8c 54 3d 2a 4b f9 3d ee 6c 49 be 04 e2 79 3e
       0.051891744 0.121725395 -0.1967046 0.24402624
000320 13 1c 68 3d bc e5 b4 be 8e e9 64 3e eb 9c 43 be
       0.0566674 -0.35331523 0.22354719 -0.19102828
000330 0b ab 90 be 85 8a 94 be 6a 9e cd 3d f2 1f ff 3d
       -0.28255495 -0.29011932 0.10039981 0.12457265
000340 31 db 83 3e 16 fa ba 3e 2f e0 2e 3d 71 e7 44 3e
       0.25753167 0.36518925 0.042694267 0.19228913
000350 f1 36 0a be 5c 53 39 be b2 e8 90 3e 9c 45 2b 3e
       -0.13497521 -0.18098205 0.28302532 0.16725773
000360 63 35 15 bd 6d 88 67 3d 59 f6 c0 3d 87 c6 3f 3d
       -0.036427867 0.05652659 0.09421987 0.04682019
000370 d6 4d 39 be 91 37 5d 3e 33 9a 7c 3e b0 39 14 3e
       -0.18096098 0.21603228 0.24668197 0.14475131
000380 3d 80 eb bd 5c 50 48 be 75 25 f5 3d 50 cc 81 bd
       -0.11499069 -0.19561905 0.11970035 -0.06337798
000390 ff e5 b2 be b6 3b 30 3e e2 00 e3 bd b0 b4 9f 3e
       -0.34941098 0.17210278 -0.11084153 0.3119254
0003a0 02 bf 0d be 04 58 ad bd 09 89 7b 3e f8 39 c1 bd
       -0.13842395 -0.08464053 0.24563994 -0.09434885
0003b0 62 1d 88 bd 2d 1c 17 be 44 36 50 3d 72 31 22 be
       -0.06646229 -0.14756842 0.050833 -0.15839174
0003c0 9a da 53 3e a0 51 dd bd 39 93 fc 3d 6b 1b 73 3e
       0.20688859 -0.10806584 0.12332768 0.23740928
0003d0 1c 95 8e bd 15 d9 32 3c 19 05 20 be a1 1b 51 3e
       -0.06962034 0.010916014 -0.15626945 0.20420696
0003e0 af 43 1f be 70 1a 63 3e a9 71 f4 3d 6a 27 26 3d
       -0.15553163 0.22178054 0.119357415 0.040564932
0003f0 68 a2 2f be f2 a7 45 3d 04 b0 ab 3d e6 44 51 be
       -0.17151797 0.04825587 0.08383182 -0.20436439

decoder.2.bias f4 [32]
000000 55 30 59 3d c1 21 7b be d6 b9 ed 3d 79 8e 80 3e
       0.05302461 -0.24524595 0.11607711 0.25108698
000010 cf f0 09 be 42 4f 60 3e 10 cd 32 be cd 6e 39 bd
       -0.13470767 0.21905234 -0.17461038 -0.045271683
000020 7b 0b 14 be 49 ea 4f bb fc 24 fb bd e1 0d 0a be
       -0.14457504 -0.0031725338 -0.122629136 -0.13481857
000030 d0 1d fb bd fc 1c 7c 3e 99 ce 85 3e ac f7 60 be
       -0.12261546 0.24620432 0.26134184 -0.2196948
000040 c1 e5 44 be b5 bb dd bd 13 50 c2 3d 7e e0 31 be
       -0.19228269 -0.10826818 0.09487929 -0.17370793
000050 b8 83 89 3e c8 bd 88 be bd 34 d5 bd 32 71 bf be
       0.26858306 -0.26707292 -0.1041045 -0.3739105
000060 c3 28 43 be b8 32 f4 bc 14 55 1a be b9 2b 54 be
       -0.19058518 -0.02980934 -0.15071517 -0.20719804
000070 30 37 44 bd 6c 68 42 be e4 a6 25 be 60 5d 02 be
       -0.047904193 -0.18985146 -0.16176945 -0.12730932

decoder.4.weight f4 [64, 32]
000000 3a f6 0a bf 6c 58 86 3e 19 bc 29 be 49 d1 85 be
       -0.5428196 0.26239336 -0.1657566 -0.26136234
000010 5b 4a 95 3e 78 ac e7 bd 1a ac b2 3d 76 8d 34 3c
       0.2915829 -0.11312193 0.08724232 0.011020055
000020 52 8d a5 3d 35 85 8f bd 2d 88 53 be d8 fb 21 be
       0.08083595 -0.07007829 -0.20657416 -0.15818727
000030 1c d4 44 be 1d 89 64 be d4 fb 31 be 1c 19 a5 3e
       -0.19221538 -0.2231793 -0.17381221 0.3224572
000040 eb 87 b6 be 1b 5d 82 bd e6 e8 94 3c 54 64 8a 3d
       -0.35650572 -0.06365415 0.01817746 0.06757417
000050 a9 7f af 3c 08 de 50 be 64 a8 75 3e d9 ac 91 3e
       0.021423178 -0.20397198 0.23990017 0.28452185
000060 f8 04 13 bf 58 05 70 3e 35 11 2f 3e 2e 38 2a be
       -0.57429457 0.23439538 0.17096408 -0.16622993
000070 30 89 33 be 48 74 f5 3e 0e ba 84 3d 8a e4 9d 3d
       -0.17532802 0.47940278 0.064807996 0.07709606
000080 e2 81 8c 3d 30 eb a1 3d a2 20 57 be 8e 57 89 3c
       0.06860711 0.079061866 -0.21008542 0.016765382
000090 dc 40 b0 3e 5f be c8 3b 88 3c d7 3e 8e ba 10 3e
       0.34424484 0.0061262096 0.4203837 0.14133665
0000a0 a2 f6 e4 3d 7a e4 b4 3c d5 3e 1b 3e 63 b3 6d 3e
       0.11179854 0.022081602 0.15160687 0.23212962
0000b0 dd f0 5a 3e 9e eb 06 3e bf f3 41 be 3e 55 4e 3d
       0.21380945 0.13175818 -0.18940638 0.050374262
0000c0 ce a7 85 3b 87 95 41 3e 98 47 a5 bd b3 ad 1a 3e
       0.004078842 0.18904696 -0.08070296 0.15105323
0000d0 96 10 25 bf 03 4e 35 bd bc 16 1a 3d 45 50 32 3e
       -0.64478433 -0.04426385 0.037619337 0.17413433
0000e0 ce fb 39 3e d8 5e c0 bd 2c fd d1 bd 3c 88 1b 3e
       0.18162462 -0.0939309 -0.10253367 0.15188688
0000f0 37 19 05 3e 5d c8 da 3d 26 a9 e3 bd ce 7c 14 bf
       0.129979 0.106827475 -0.11116247 -0.58002937
000100 1a 72 09 be d4 92 01 bc 9d 8b 58 3e 41 92 68 3d
       -0.13422433 -0.007908542 0.21147008 0.056780104
000110 af de 19 3d 6e 3f 90 3e 56 ae 01 3d 5c 2c 2c 3e
       0.037565883 0.28173393 0.0316604 0.16813797
000120 0e f1 04 be b4 91 e8 3c 4e 42 eb 3d 9d 19 14 3e
       -0.1298258 0.02838979 0.11487256 0.14462896
000130 be 35 fd 3d d3 03 6f 3c 63 47 e5 be ff e7 c9 3c
       0.12363766 0.014588314 -0.44781026 0.024646757
000140 92 54 37 bf 65 7b f7 bd dc f8 f2 be 00 b0 d7 3b
       -0.7161342 -0.120840825 -0.4745549 0.00658226
000150 1a 21 28 3e a2 b7 e7 3c c5 13 9e be 10 fe 43 3e
       0.16418877 0.028285805 -0.30874458 0.19139886
000160 20 4b f4 bd b8 ab 88 bd 15 79 ce bd 03 bb c6 3e
       -0.119283915 -0.06673378 -0.10081688 0.38814554
000170 f4 8b 10 be b5 d2 b1 bd 23 ed 20 3e d4 c5 c9 3d
       -0.14115888 -0.08682767 0.1571546 0.09852186
000180 91 1a 21 3e 87 da 02 bd 24 e5 51 3d 63 5e 3e 3e
       0.1573279 -0.031946685 0.051243916 0.18590693
000190 f9 6b 7a be ae d4 57 3e 9b 42 83 3d 3a be d9 3d
       -0.24455251 0.21077225 0.06409188 0.10631986
0001a0 22 c8 a1 3d c0 ce ab 3c 66 ec 92 3c 9f fd b5 be
       0.078995004 0.02097261 0.01793499 -0.3554506
0001b0 9e 4b 57 bd c8 0f 95 3d ef 04 3b bb 3c 5b 90 3d
       -0.05256235 0.07278401 -0.0028536876 0.070486516
0001c0 bd 2d 1d be cc 8e 37 3d 8c 98 a1 3d 64 8a 1d be
       -0.15349479 0.044813916 0.07890424 -0.15384823
0001d0 e1 42 5e 3e b2 1e e6 3d 9b 63 17 be 29 34 ab 3d
       0.217052 0.112363234 -0.1478409 0.08359558
0001e0 70 1a 37 be 09 c0 d9 3c 93 e8 34 3e 18 ee 06 3d
       -0.17881179 0.026580827 0.17666845 0.032941908
0001f0 c0 b7 b7 3b ef d8 fb bd cb fb 44 be 76 0a 0e 3e
       0.0056066215 -0.12297236 -0.19236676 0.13871178
000200 80 04 c6 bb 1e 12 b4 3d 50 1e ef bd c0 8a 70 bc
       -0.006043017 0.08792518 -0.116757035 -0.014681518
000210 92 ed 18 be a0 53 08 3d d4 84 2b bd 30 4b 3f bd
       -0.14934376 0.033282876 -0.04187472 -0.046702564
000220 e0 2d 3e bd 48 0f f8 bd 08 ce 5f 3d 70 3a ec bc
       -0.04643047 -0.1211229 0.054639846 -0.028836459
000230 9c 26 50 bd 6a 3a d2 bd cb d8 b1 bd 56 4e e7 3d
       -0.05081807 -0.10265048 -0.08683928 0.11294238
000240 e4 5b 2e 3d f6 f4 d6 bd 47 63 96 bd 05 49 0f 3e
       0.042568102 -0.10495941 -0.073431544 0.13992698
000250 00 ba d3 ba fc 7e 2b be 4f f0 2b be 32 3c c3 3d
       -0.0016153455 -0.1674766 -0.16790889 0.09532966
000260 62 2c a5 3d 02 21 57 bd 19 7b 8a bd 90 6e 83 3c
       0.08065106 -0.052521713 -0.0676176 0.016043931
000270 10 68 df bc 6e c0 c5 3d 19 33 0a be 3f 12 11 3e
       -0.0272713 0.09655844 -0.13496055 0.14167117
000280 20 5d 93 3c 41 41 41 be e7 4b 4d be af 16 c6 bd
       0.017988741 -0.18872549 -0.20048486 -0.09672295
000290 1d ee be 3d b0 60 c3 3a a6 21 0e 3e e2 17 c5 3d
       0.0932276 0.0014906134 0.13880023 0.09623696
0002a0 49 80 29 3e da a1 ab 3d 16 2d 20 be 20 04 b6 3c
       0.16552843 0.0838048 -0.15642199 0.022218764
0002b0 86 b7 c2 bd 92 76 4c be 01 89 2f be 61 b2 9f 3d
       -0.095076606 -0.19967106 -0.17142107 0.07797695
0002c0 cd 21 ce 3d bf de ad bd 88 c7 2a be fe 25 6f bd
       0.10065041 -0.08489751 -0.16677678 -0.05838584
0002d0 87 4f da bd 28 5c c2 bd 28 ae 33 3d 8e 4a 16 3e
       -0.106597 -0.09490234 0.04386726 0.14676878
0002e0 00 c5 95 bc 31 71 e1 3d 8c 8b 72 3d bd af 20 3e
       -0.018282413 0.11007918 0.059215114 0.15692039
0002f0 30 ee 53 3d 90 b6 5b bc f3 6a 2a be b1 0e 60 3d
       0.051740825 -0.0134102255 -0.1664236 0.05470151
000300 5b 28 bf 3d fb 05 f2 3c fc 74 86 bd a2 8f 31 3d
       0.09333869 0.029543867 -0.06565282 0.04334987
000310 09 89 0e 3d cf 21 0e be a0 e6 4f be 5e f8 cb bc
       0.034798656 -0.13880084 -0.2030282 -0.024898704
000320 11 1b bc bd 1d ad b1 bd 92 cb 63 be cd 57 1f 38
       -0.0918485 -0.08675597 -0.22245625 3.7990325e-05
000330 c8 ff 82 3b d8 f0 9d 3d 16 4e 99 bc b8 4a 04 bd
       0.0039977767 0.07711953 -0.018713992 -0.03229782
000340 f3 8c 8b bb ce 6b d8 3d d2 c6 95 bd f4 7c 33 be
       -0.004258746 0.10567437 -0.073133126 -0.17528135
000350 cf b7 05 3f 0e 7c 17 be 62 8b 0f 3e fc 03 8e 3d
       0.52233595 -0.14793417 0.14018014 0.06934354
000360 db eb 00 3e d0 ed ba be 56 04 b5 3d 4c 5f c2 3d
       0.12589972 -0.36509562 0.08838718 0.09490833
000370 6f ee 0b 3e d2 2d 8a 3d ce 1d 25 3e 69 92 71 be
       0.13665174 0.06747021 0.16124651 -0.23591007
000380 61 e2 03 bd c3 61 06 be 26 32 2d be 97 79 1e 3c
       -0.032198314 -0.1312323 -0.16913661 0.009672544
000390 04 9f bd bd b1 7a 21 3e 80 05 56 be 0e 56 ec 3d
       -0.092588454 0.1576946 -0.20900536 0.11539851
0003a0 ac fb 31 3d 8d aa f0 3d 7d ec ad bc 6e bf 7b be
       0.043452904 0.1175128 -0.02123093 -0.24584743
0003b0 7e b9 80 3e e7 9f fb bd cf 3e 58 bd f0 27 9f bc
       0.2514152 -0.12286358 -0.052794274 -0.019428223
0003c0 e8 67 81 bd dd 37 d2 3d d8 0d 10 3e 51 07 1f 3e
       -0.06318647 0.10264561 0.14067781 0.15530135
0003d0 3d 2f ec bd 48 a2 46 3e 57 bd 03 be 3c 1f 87 3e
       -0.115324475 0.19397843 -0.12865196 0.26391017
0003e0 42 b3 e6 bd 21 8c 85 3e 05 19 1c 3e f4 f0 07 bd
       -0.112646595 0.26083472 0.15243919 -0.033188775
0003f0 97 08 13 3e 9c fc 7a 3d c9 4f de bc f7 fa 9e 3d
       0.14358746 0.061276063 -0.027137654 0.077627115

decoder.4.bias f4 [64]
000000 de 2f 12 3e 62 1f 5f be 22 78 33 bd 0e 67 be bd
       0.14276072 -0.21789315 -0.04381574 -0.09297
000010 00 f7 bc bb cd 11 41 be 7b 93 d8 bd b0 9a f6 bd
       -0.0057667494 -0.18854447 -0.10575005 -0.12041223
000020 63 a6 98 3d 4c 0e c7 bd 95 35 53 be 64 04 8f bc
       0.07453611 -0.09719524 -0.20625909 -0.017458148
000030 39 6b 06 3e ef 7e 44 be 3e 45 48 be 0a de cf 3d
       0.1312684 -0.19189046 -0.19557664 0.101497725
000040 6b 45 a9 bd 36 e5 7d 3d cd 2a 05 3e 43 18 05 3e
       -0.082651936 0.06198617 0.13004608 0.12997536
000050 fa 3b 9d be 6a 23 c9 bd 0d 99 42 3d 2f fa e8 3d
       -0.3070982 -0.09821208 0.04750924 0.11375844
000060 54 72 0b 3d 9b 92 f0 bd ba bb 02 3c 5c 43 17 3e
       0.03404458 -0.11746713 0.007979328 0.1477179
000070 3e 7a be 3d 51 08 c2 3d 55 93 15 bd 2a cf 6b bd
       0.093006596 0.094742425 -0.03651746 -0.057570614
000080 a9 6f d0 3c a3 2e 83 be f7 54 b0 bd e6 9d cf bd
       0.025443869 -0.25621518 -0.08609956 -0.101375386
000090 a2 a4 0c 3e b9 21 50 be 45 b7 59 be 50 27 f4 bc
       0.13734677 -0.20325364 -0.21261318 -0.029803902
0000a0 09 ec 92 3d e7 32 0d be 4b a0 fd bb c1 26 54 3d
       0.071739264 -0.13788949 -0.0077400557 0.05179477
0000b0 3a da ac 3d ea 5d 1a be d7 41 a5 3c 41 de be bc
       0.08440061 -0.15074888 0.020172996 -0.023299338
0000c0 45 8b 08 3d da 2a 6f bc 04 0c 95 bb fc 66 98 3d
       0.033335943 -0.014597619 -0.0045485515 0.07441518
0000d0 1b c2 83 bd 24 07 d8 3d de a4 96 3d be 35 1e 3e
       -0.06433507 0.10548237 0.07355665 0.15450189
0000e0 e7 53 fc 3d 0b d4 34 3e 50 91 cd 3d 46 b5 cf 3b
       0.123206906 0.17659013 0.10037482 0.006338748
0000f0 aa f9 d0 bd 74 bc be bd c9 14 10 3c 43 0e 9f bd
       -0.1020387 -0.09313288 0.008794018 -0.07766392
