log_model/models/lstm.pt (torch, 138882 bytes, 11 tensors)

lstm1.weight_ih_l0 f4 [256, 15]
000000 5d 86 97 3d 31 f8 e4 3c dd 87 0c be 40 1b 0a 3d
       0.07398675 0.027950378 -0.13723703 0.033717394
000010 af 0b 55 bd e7 c6 32 3e b1 60 93 3d 17 5f b1 3c
       -0.052013095 0.17458688 0.07196177 0.021651788
000020 e3 fc c3 bd cf 3e 38 be 01 e9 50 bd ac 78 69 3d
       -0.09569719 -0.1799271 -0.05100346 0.056999847
000030 fb 8f 5d 3d 3d 1d 64 bd 3d e3 35 3d e8 f5 a4 3c
       0.05409239 -0.055691946 0.044406164 0.020136788
000040 6c 17 03 3e d4 48 ab 3d 38 b3 da 3d e4 59 0b 3e
       0.12801903 0.083635 0.106787145 0.1360851
000050 49 a6 4a 3d dd 47 4c bd 51 88 02 3e 77 0f 5c bc
       0.049474988 -0.04987322 0.12747313 -0.0134314215
000060 ba 69 ef 39 f8 eb 43 3d 3a d6 ba bd 49 09 76 3d
       0.00045664405 0.04783246 -0.09122892 0.06006745
000070 40 d6 bb bd 80 5f 2b 3c 14 4d 00 3d af db a5 3d
       -0.09171724 0.010459781 0.031323507 0.08098542
000080 60 a8 44 bd 51 48 b1 ba 8e fa 59 3d 1b 84 04 3e
       -0.048012137 -0.001352558 0.053217463 0.12941019
000090 f8 8b 11 3c 1c 04 e0 3d 2f 28 db 3d 77 97 0a 3d
       0.008883469 0.10938284 0.10701024 0.033835854
0000a0 2d 93 63 bd 08 b4 28 bd 1f 4b c2 bb 86 7d 41 3e
       -0.05556028 -0.041187316 -0.0059293653 0.1889554
0000b0 c4 b2 0f 3b f7 a9 f6 bd 9d c5 35 bd 8f bb f8 3d
       0.002192662 -0.12044137 -0.04437791 0.12145149
0000c0 3e 98 6b bd 48 c1 c0 3d aa 21 d8 3b c3 54 80 3d
       -0.057518236 0.094118655 0.00659581 0.06266167
0000d0 a6 b0 87 bd 94 ea 1d bc 11 95 4f 3a 33 97 f6 bc
       -0.0662549 -0.009638447 0.0007918636 -0.030101394
0000e0 58 48 a7 bd 03 c1 d7 3d b7 49 6c 3c 32 89 8b 3c
       -0.08168095 0.10534861 0.014421872 0.017033193
0000f0 b0 f8 dc 3d 1f e3 37 bd e1 6f a6 bc ff b6 a4 3d
       0.10789621 -0.044894334 -0.02031702 0.08042716
000100 46 2e 8b 3d 4f 3b 15 3e 76 fd 5d 3d ac 7c 19 3e
       0.06795935 0.14573406 0.054196797 0.14988965
000110 b1 ab dd bc bf 67 08 be 0c 5d 66 3d dc 35 33 3d
       -0.027059408 -0.13320826 0.05624108 0.043752536
000120 05 43 08 3e a1 24 f5 3d bc ab dc bc 7c 0c c9 bc
       0.13306816 0.11969877 -0.026937358 -0.024542086
000130 07 f8 6e 3d fa fa 4e 3d 43 06 a3 bd 62 ed 5b 3d
       0.058342006 0.05053232 -0.07960179 0.053693183
000140 31 24 3d bd 37 f1 be bd c6 f7 37 3d c6 2b dc 3d
       -0.046177093 -0.09323352 0.04491403 0.107505366
000150 9f 73 b7 bd da 70 ea bc 60 1d f5 3b 2b 10 48 3d
       -0.089576 -0.028618265 0.0074803084 0.048843544
000160 67 1b d2 bc 4a 6d e5 3d 98 39 4d bd f1 6c 79 bc
       -0.025647832 0.11202486 -0.050103754 -0.015223728
000170 a5 54 8f 3d 5d 60 5c bd 35 1f b7 bd 83 08 46 bc
       0.069985665 -0.053802837 -0.08941499 -0.01208699
000180 d7 91 91 ba 13 df c3 bd 70 0b b7 bd 77 7f f0 3d
       -0.0011106086 -0.095640324 -0.089377284 0.11743062
000190 f7 65 dd 3d 4c e3 90 bd b6 fb 29 bd 11 50 ff bd
       0.10810464 -0.070746034 -0.041499816 -0.12466443
0001a0 15 3b e6 3c fc 52 b4 bd 2e 78 a7 bc 82 ed ce 3b
       0.028104344 -0.088048905 -0.020443048 0.006314934
0001b0 6f 15 ce bd 84 fa 9e bc 64 9c ac bd 11 2c 83 3d
       -0.10062682 -0.019406565 -0.08428267 0.064048894
0001c0 cf 5a b0 3c 42 50 39 3d c4 8f 28 3e 9d 73 c1 3b
       0.021527676 0.045242555 0.16461092 0.0059036748
0001d0 98 d5 98 3c 35 d3 06 be 05 0d 17 be 8e 25 b6 3c
       0.018656537 -0.13166507 -0.1475106 0.022234704
0001e0 2e a2 04 3e 75 b6 3a 3d 65 95 e1 bc a9 90 e3 3d
       0.12952492 0.04558416 -0.027537057 0.11111576
0001f0 5c 35 0e 3e 06 1e 37 bd ae dd d7 3d 25 5b 4d bd
       0.13887542 -0.044706367 0.10540329 -0.05013575
000200 03 7d ba bd db 26 0d be f3 ed 27 3d 4c 89 01 bd
       -0.09105875 -0.13784353 0.04099841 -0.031625077
000210 7f 29 f6 3d e2 0e c3 3d 67 03 8b bc 77 6f fb bb
       0.120196335 0.09524323 -0.016969396 -0.0076731998
000220 6e 4a 0a 3e 62 c0 a2 3d c7 99 c9 3d cc 73 22 3d
       0.13504955 0.0794685 0.09843784 0.039661214
000230 68 cb 9e 3d 2d 39 81 3d 28 8b c2 3d 17 e4 08 bc
       0.077536404 0.063097335 0.09499198 -0.008355162
000240 cc 78 98 3d 14 42 9a 3d 10 de da 3d d7 ba f3 bc
       0.07444915 0.07532135 0.10686886 -0.029752178
000250 11 54 10 3d 62 03 3c 3c 10 f7 be 3d 35 3b a9 bd
       0.035236422 0.011475416 0.09324467 -0.08263246
000260 fd 70 02 3e 72 2f 90 bd 96 5b 4d 3d db e0 ca 3d
       0.12738414 -0.070402995 0.05013617 0.09906169
000270 63 8f 42 3c ae 83 f5 bb 3f 05 7c bd 3c 22 64 3c
       0.011875006 -0.007492504 -0.06152844 0.013924178
000280 f9 e7 3a 3c 00 aa da 39 71 61 6f 3d c2 09 26 3d
       0.011407846 0.0004170686 0.058442537 0.04053665
000290 30 65 a1 3d 5d b5 ca 3d d6 41 8a bd 9a 7f a1 3d
       0.07880628 0.098978736 -0.067508385 0.07885666
0002a0 43 93 3c 3d ae f2 3e bd 2e 01 de bc 68 1b 0c 3e
       0.046038877 -0.046618156 -0.027100172 0.1368233
0002b0 f3 d8 00 3e 31 84 6d bc 9e 60 c9 3d 8f a7 9b bb
       0.1258276 -0.014496849 0.098328814 -0.004750199
0002c0 78 a6 c6 3d 0c 53 70 bc 41 0f 14 3e da 88 e0 3d
       0.0969972 -0.014668237 0.14458944 0.10963602
0002d0 5e 18 5a bd 3d d9 f4 3c f5 0e 37 3e 19 72 3e 3e
       -0.053245895 0.029888744 0.178768 0.18598212
0002e0 94 14 89 3c c9 50 09 3e 6f b7 3b 3d 4c b5 0a 3e
       0.016733445 0.13409723 0.045829233 0.13545722
0002f0 a7 75 22 3e 6f e2 d7 3c c7 e5 9b 3b c2 d5 8f bd
       0.15865193 0.02635309 0.004757616 -0.07023193
000300 6d c7 98 3d 99 eb e3 bc 27 2c a1 bb 5a 41 5f bd
       0.074599124 -0.027822303 -0.0049185934 -0.054505683
000310 59 ab 15 3d d5 a9 70 3c cf 9e 56 bd 90 8c 9c 3d
       0.036540363 0.014688929 -0.052397545 0.07643998
000320 3d 7f d9 3d d2 6c 9c bd b2 d1 78 bd 7a fb f7 3d
       0.10619972 -0.07637943 -0.060746856 0.12108512
000330 e7 22 0c bd 59 0d e0 bd 8c 45 32 3d ab 41 55 3d
       -0.034212973 -0.10940046 0.043523356 0.05206458
000340 3c bf b5 bd 27 54 60 3d 12 af 20 bc 4e ff f9 3c
       -0.08874366 0.054767754 -0.009807365 0.030517247
000350 5e ea 02 3e 00 d2 08 3e 50 11 86 3d c1 92 1b 3d
       0.12784716 0.13361359 0.06546271 0.037981752
000360 56 73 96 3d 1a 0e f2 3d 45 66 01 3e 43 27 0c 3e
       0.07346217 0.11819096 0.12636669 0.13686852
000370 79 1f ed 3d 6c a9 c7 bd 25 07 08 3e b1 35 99 3d
       0.115782686 -0.097491115 0.13283975 0.07480944
000380 06 d3 36 3d fa a2 4b 3c 1b 9f 15 bd 26 79 5d bd
       0.04463484 0.012428993 -0.036528688 -0.054070614
000390 1d e7 e3 3d de 43 86 3c 45 e8 95 bd bd f2 3f bd
       0.11128066 0.016389783 -0.073196925 -0.046862353
0003a0 97 62 a0 bc da c2 aa bd 4a 0b 64 bd 8c 5b 8d 3c
       -0.019578261 -0.08337946 -0.05567483 0.017255567
0003b0 2a fb b0 3d 8b bc b9 bd 71 43 80 bd 1e 5e bd 3d
       0.08641656 -0.09069165 -0.062628634 0.09246467
0003c0 9d c5 6d bc 83 00 c5 3d ae 7b 0a 3d e4 7b 24 bd
       -0.014512447 0.09619238 0.033809356 -0.040157214
0003d0 4a 36 83 3d 22 f8 f6 3c a1 59 f5 bc ed 70 a5 3d
       0.06406839 0.030147616 -0.029949965 0.080781795
0003e0 d1 6c 86 3d 34 31 b0 bb 4a 9f 15 3e f0 b2 06 bc
       0.06563724 -0.005376959 0.14611545 -0.008221373
0003f0 f2 27 06 3e 59 14 f2 3d 12 b6 df 3b 45 e3 84 3d
       0.13101175 0.11820287 0.0068271244 0.06488661

lstm1.weight_hh_l0 f4 [256, 64]
000000 a5 ef 9d 3d 0c 95 14 be 54 cc 70 bd 5c 12 4f 3c
       0.07711724 -0.14509982 -0.058788612 0.012638655
000010 54 dd 94 bd 99 82 91 3d 74 8e 29 3d 15 c2 02 be
       -0.072687775 0.07104988 0.04139562 -0.12769349
000020 75 a6 43 3d 2a be c5 3d fe c4 00 3d 5e 68 d3 bb
       0.047766168 0.096554115 0.031437866 -0.0064516505
000030 b1 e9 f7 bd 58 73 fa 3d c6 70 7e bc ef 3e 0c bd
       -0.1210512 0.12229031 -0.015529817 -0.034239706
000040 53 5c 80 bb 66 5c 07 be 72 c0 0a be f7 8e 50 3d
       -0.003917256 -0.13218841 -0.13549975 0.050917592
000050 07 4c f7 bd ad 05 00 bc af cc 5b bd 64 2b ec 3d
       -0.12075048 -0.007813853 -0.053662 0.115317136
000060 ea cd 93 3b ed 12 96 bd ca 03 24 3b 1b 2b 6d bd
       0.004510631 -0.073278286 0.0025026673 -0.057902437
000070 a9 fc 1a 3e 5a cc 4b 3d ad db f2 3c 12 66 17 bb
       0.15135445 0.04975543 0.029645765 -0.002310161
000080 e9 d8 b4 3c 47 42 88 3d 7f ea 2a 3d 2e d7 d8 bc
       0.022076087 0.066532664 0.04172754 -0.026469793
000090 f5 fd 17 3c f3 d6 05 be 2d 19 a3 3d 14 db 80 3b
       0.009276857 -0.13070278 0.07963786 0.003932366
0000a0 c6 23 f9 3c 3d 3c 81 3d a9 c9 b1 bd 08 4b 87 3d
       0.030412566 0.06310318 -0.08681042 0.06606108
0000b0 06 3d 48 bd df db e4 bd b4 cb 93 3d 1e ae a6 3d
       -0.04888632 -0.111747496 0.07216588 0.08138679
0000c0 92 18 e0 bd d0 b0 86 3d c8 0c 04 be df e1 4a 3d
       -0.109421864 0.06576693 -0.128955 0.049531814
0000d0 11 23 a2 bd 0a 32 91 bd d7 72 c3 3c 4d 68 a6 3d
       -0.07916845 -0.07089622 0.02385847 0.081253625
0000e0 8c ba f9 ba 5c 9a 21 3e f6 57 02 be bb 52 06 be
       -0.0019052788 0.1578154 -0.12728867 -0.13117497
0000f0 f1 5b 90 bd 2e da 17 be 73 44 88 3d 60 24 f1 3c
       -0.070487864 -0.14829323 0.06653681 0.02943629
000100 29 ed e7 3d a4 23 be bd 61 31 6a 3d 59 19 57 bd
       0.113245316 -0.09284142 0.057175998 -0.052514408
000110 dc 37 7a bd 98 cf b6 bd 67 fd d4 bd 77 7c fe 3d
       -0.061088428 -0.08926314 -0.10399895 0.124260835
000120 bf 01 01 3d 4c 41 97 3d a2 ec ac bd aa e3 c3 bd
       0.031495806 0.07385501 -0.084435716 -0.09564908
000130 b8 78 e9 bd f5 67 1d 3d 24 56 88 3d 56 20 b4 3b
       -0.113999784 0.03842922 0.06657055 0.005497019
000140 4d bb d8 bc 73 7b aa 3d 79 38 2e 3d 19 5e 47 3d
       -0.0264565 0.08324327 0.042534325 0.048673723
000150 e2 c0 49 bd 99 a9 cb bd 30 ec d4 3a 02 ff ae bd
       -0.049256213 -0.099444576 0.0016244706 -0.08544733
000160 98 06 01 3c d6 e9 46 bd ea 11 97 3d 91 31 ce bd
       0.007875107 -0.048562847 0.07376464 -0.10068048
000170 2b 50 8e bd cb b0 e4 3c 5a e4 ce 3d 92 21 b8 3d
       -0.069488846 0.027916333 0.10102148 0.08990778
000180 8d 98 a5 bb 31 9a 59 bd 1c 9e 1c 3d 90 a6 89 bd
       -0.005053586 -0.053125564 0.038236722 -0.067212224
000190 75 88 87 bd e6 22 ea 3d 9d 09 82 3c 48 f4 80 bd
       -0.06617824 0.114324376 0.015873725 -0.06296593
0001a0 41 cd 39 bc 81 4f c4 bc 3a c1 f7 3d 3e eb 93 3d
       -0.01134044 -0.023963692 0.12097402 0.07222603
0001b0 b8 65 2e 3d 13 9e ff 3c eb 12 01 be ab 02 c6 bc
       0.042577475 0.031203305 -0.12604873 -0.024171194
0001c0 05 02 8e bc 9f a1 15 3d 82 6f bd bd 27 26 f4 3c
       -0.017334947 0.036531087 -0.09249784 0.029803349
0001d0 26 cf cb bd 2a c1 d9 3d bc 95 87 3c 51 59 9c 3c
       -0.0995162 0.10632546 0.016550891 0.019085558
0001e0 cd c9 14 bd d8 64 0a be 06 9b 9d bd a9 9b 8c bd
       -0.036325265 -0.13515031 -0.07695584 -0.06865627
0001f0 d9 22 9c 3d f2 b3 9c bd 43 19 7b 3d 58 db 93 3c
       0.07623834 -0.07651509 0.06130339 0.018048927
000200 01 28 c7 3d 16 c4 f7 3d 7b 4a d9 bc d7 76 f7 bd
       0.09724427 0.12097947 -0.026524773 -0.12083214
000210 a1 6f 3e 3d 9f 99 da bc d3 93 a9 bd 40 1a 85 3d
       0.046493176 -0.02668458 -0.08280148 0.064991474
000220 79 82 da 3c 80 3d 6c 3b 5e 06 63 3d 72 39 ca bd
       0.026673542 0.00360474 0.055425994 -0.09874238
000230 0f 92 c8 3d 54 df 04 be d2 a3 bf 3d f6 20 6a bd
       0.097934835 -0.12975818 0.09357418 -0.05716034
000240 55 5e 41 bc 85 74 e9 bb 07 29 db 3d 83 f9 14 3d
       -0.011802276 -0.007124486 0.10701185 0.036370765
000250 89 a4 f0 3d 0d 00 cb 3c ab 59 4a bd 2e 33 26 be
       0.117501326 0.024780298 -0.04940192 -0.16230461
000260 41 f8 06 3b 94 68 60 bd a7 68 cc bc 03 05 b9 3b
       0.0020594748 -0.054787233 -0.024952246 0.0056463494
000270 89 c1 24 bd f2 63 14 bd 6d 6c b3 3d 91 be b3 3b
       -0.040223632 -0.036228128 0.08760915 0.005485364
000280 b7 2f d1 3c 8a 79 ac bd c5 81 ae 3c 57 20 0c be
       0.025535448 -0.08421619 0.021302113 -0.13684212
000290 7c 54 97 3d 8a ea e1 3d 64 c7 57 3d 76 08 5a 3d
       0.07389161 0.11031063 0.052680388 0.053230725
0002a0 8b de 8b bc 20 fc 18 3d 65 e8 3b 3d 93 10 ca bc
       -0.01707389 0.03734982 0.045875926 -0.024666106
0002b0 41 ba c2 bc 09 16 8c bd 77 bf 11 be c0 a1 2d 3c
       -0.023770453 -0.0684014 -0.14233194 0.010597646
0002c0 01 5c 8d bd 93 ed 5f bc cc fd f3 3c 2c ba 4b ba
       -0.06902314 -0.013667482 0.029784106 -0.0007771577
0002d0 84 31 49 3d 20 e5 52 bd 2d 08 29 3e 46 09 92 bd
       0.049119487 -0.051488042 0.16507025 -0.07130675
0002e0 14 e7 a0 bc 26 04 12 be 88 13 da 3d 75 b7 2d 3e
       -0.019641437 -0.14259395 0.106482565 0.16964515
0002f0 36 fd fb 3c ff 9f 47 3d c0 a1 97 3d 68 aa 81 3d
       0.030760389 0.04873657 0.07403898 0.063313305
000300 47 c3 cb 3d c9 cf 72 3d 34 91 6d 3d 04 eb 78 bd
       0.099493556 0.05928019 0.057999805 -0.060771003
000310 fb 89 a7 bc 10 c4 62 3d 49 d2 be 3d 0b 42 e7 bd
       -0.020451536 0.05536276 0.093174525 -0.112918936
000320 0a dd fb 3d 52 ad 39 3d 1f 59 f4 3d 5c 7c a8 3d
       0.12298019 0.045331307 0.11931061 0.08226845
000330 76 e0 62 3d 9d 8f 9e 3d 51 2e fd bd c8 f1 ee 3d
       0.055389844 0.07742236 -0.1236235 0.1166721
000340 90 f3 91 3c 80 6b ac 3d 1d 7a a4 3d 65 6e bd 3d
       0.017816335 0.084189415 0.08031104 0.09249572
000350 53 11 c4 3c d4 f8 a7 bd 80 8d 5d bd b2 f3 ce 3b
       0.023934042 -0.08201757 -0.054090023 0.006315672
000360 eb 65 c7 3d a5 67 5e bd 9f c3 49 3d a0 fe a4 bd
       0.09736236 -0.054298062 0.049258824 -0.08056378
000370 a5 ea 0f be d7 d5 db 3d 90 cd 48 bd ba 29 aa bc
       -0.14054354 0.10734146 -0.049024165 -0.02077185
000380 a5 89 10 3d 5f e1 16 3e 27 8a e6 3b dc 6f d2 bc
       0.035287518 0.1473441 0.007035512 -0.025688104
000390 40 dc 09 3d f6 0e 3f 3d 3e 00 0d bb b4 e0 66 3c
       0.033657312 0.046645127 -0.0021515037 0.014091659
0003a0 9d 46 c6 3d eb 85 2e bd 38 98 f5 3d dc b0 64 3d
       0.09681437 -0.042608183 0.11991924 0.05583273
0003b0 05 aa b7 bc 6d d6 f1 3c 57 90 ec bd de 84 6b bd
       -0.022419939 0.029521191 -0.11550968 -0.05749976
0003c0 e1 ba 8e 3d eb 7b 6e 3b cd a9 0a 3e 39 33 5e 3d
       0.06969238 0.0036389779 0.13541336 0.05424807
0003d0 a5 1f ea bb c8 74 e4 3c 1f 59 19 3d 9d 0d 83 3b
       -0.0071448856 0.027887717 0.037438508 0.0039994256
0003e0 5b 76 da bd ae 89 e8 3c b2 55 45 bd 5a f9 bb bd
       -0.10667106 0.028385963 -0.04817743 -0.091784194
0003f0 d4 09 ad 3b 09 a1 28 3d 55 fb d0 3c b0 72 cb 3d
       0.0052807126 0.0411692 0.02551047 0.09933984

lstm1.bias_ih_l0 f4 [256]
000000 55 8e e1 bd e0 40 99 3d 62 de fa 3d 0d 83 8a 3d
       -0.11013476 0.07483077 0.122494474 0.06763277
000010 11 ae 52 bd 33 b9 2d 3d 67 df b1 3a b6 6c ef bd
       -0.051435534 0.042412948 0.0013570607 -0.11690657
000020 fa c7 32 3d 24 f7 85 3d fb 82 ec 3d 16 a0 b4 3d
       0.043647744 0.06541279 0.1154842 0.088195965
000030 47 af bf 3d 26 3e bc bd 0d d5 49 bd 9f 07 41 3d
       0.093596034 -0.091915414 -0.049275447 0.04712641
000040 2c 96 ea 3c 62 ba ca 3d 2e 12 1a 3e 98 0a 56 3d
       0.02863606 0.09898831 0.15045998 0.052256197
000050 a4 0c e5 3d 1a 98 9a bb 92 b5 e0 3d a2 94 d6 bd
       0.11184052 -0.004717839 0.10972132 -0.10477568
000060 bd cd e2 3d 33 61 af 3c 49 16 a9 3d a8 00 0d 3e
       0.11074398 0.021408653 0.08256204 0.13769782
000070 a8 e9 11 3e 4b 4e 85 bd c0 57 3b bb 4b f9 50 bd
       0.14249289 -0.06509074 -0.0028586239 -0.051018994
000080 0d 3f bc bc 92 c2 73 3d 0f 81 bd bc 53 79 b9 3d
       -0.022979284 0.05951173 -0.023132829 0.09056344
000090 ff 9f 04 be 21 a5 fa 3d d2 ae b4 bd 23 60 f6 bd
       -0.12951659 0.12238527 -0.08822407 -0.120300554
0000a0 65 c1 1b 3e fc ee 2a 3d 99 cb bf 3d c0 7f 42 3d
       0.15210493 0.04173182 0.09365005 0.047485113
0000b0 ff a9 80 3d af cd dc 3c 19 66 7b 3d cb ac 50 bc
       0.06282424 0.026953546 0.061376665 -0.01273651
0000c0 53 03 c6 3b 16 98 ce 3d a4 90 dc 3d 48 71 29 bd
       0.0060428767 0.10087602 0.107697755 -0.0413678
0000d0 8c 46 10 3e ce 9b 08 3d aa 76 00 3e 79 f1 71 3d
       0.14089411 0.033351712 0.12545267 0.059068177
0000e0 b9 fc 8e bd 27 74 5f 3d f1 75 16 3e a4 49 93 bc
       -0.06981797 0.05455413 0.14693429 -0.01797945
0000f0 4a 8a 7a bc e4 6b 4b 3d 74 19 0b bd 85 61 ea ba
       -0.01529176 0.04966344 -0.03395982 -0.0017881846
000100 f8 9b cc 3b d5 2a d4 3d 47 45 9b bd 43 dc 9d 3d
       0.006244179 0.10359732 -0.07581573 0.07708027
000110 6b 84 93 3d 02 a1 88 3d d2 58 80 3c d4 e6 08 bd
       0.07202991 0.06671335 0.015667353 -0.03342326
000120 b0 c3 b1 3d f6 44 ee 3c 83 f7 ce 3d e5 d0 18 3c
       0.086799026 0.029085618 0.10105803 0.009327148
000130 6c b1 7b bc 5b ac 2e 3e bd 47 69 bd 96 e2 16 3a
       -0.015362125 0.17057936 -0.05695318 0.000575581
000140 85 9d 95 bd 5e c0 00 bd 4c 10 17 3e 24 7d d7 3d
       -0.07305435 -0.031433456 0.1475231 0.105219156
000150 27 4c 06 3d 01 7f 94 bd aa 78 44 bd 35 76 da bd
       0.03278747 -0.072507866 -0.047966637 -0.106670775
000160 13 8c 12 bd ac 94 4e 3d 81 fc 31 3b 81 65 85 3d
       -0.035778116 0.050434753 0.002715856 0.06513501
000170 72 1d 03 3e 00 3b 0a 3d 8c 24 70 3d 3c 08 b0 3d
       0.12804201 0.033747673 0.058628604 0.085953206
000180 81 3c bc bd 9f 8a 3f 3d 6e 5d 2c 3d d6 32 49 bd
       -0.09191228 0.04676306 0.04208129 -0.049120747
000190 4b b8 5d bc 75 6b a1 bc 09 22 9f 3c f9 c3 79 3d
       -0.013532708 -0.01970456 0.019425409 0.06097791
0001a0 68 8b 75 3d 23 71 9e bd ac e1 2b bd 4b a7 42 bd
       0.0599474 -0.07736423 -0.041963264 -0.047522824
0001b0 85 b7 d0 3d 78 0a 84 3d 5f ae f6 3c cf 38 9e 3d
       0.101912536 0.06447309 0.030112443 0.07725679
0001c0 a7 b4 46 bd ee d8 2d 3c bf 66 35 3e 17 5c 27 3c
       -0.048512127 0.010610802 0.17714976 0.010214827
0001d0 49 64 9f bd c2 f2 41 3c 87 d8 41 3c 1b 7e 67 bd
       -0.077828 0.011837663 0.011831409 -0.056516748
0001e0 14 3b bd 3d 73 4c 0a 3e ee 71 ac 3d c6 5c 0b 3d
       0.09239784 0.13505726 0.08420168 0.034024023
0001f0 b6 3f b8 3c 4b fd e0 3c 0c 75 d5 3d 78 83 90 3d
       0.022491317 0.02746453 0.104227155 0.07056326
000200 3c e8 cd 3c a2 cb 1c bd fb e8 ff 3b 4d d2 28 bd
       0.025135152 -0.038280137 0.007809756 -0.041216183
000210 af e5 2e be fb 1e 3f 3c ea 32 3d 3d d9 30 0d bd
       -0.17079805 0.011665101 0.046191134 -0.034470413
000220 21 99 12 be ec c7 ca bd 1f b9 00 bd a4 20 e4 3d
       -0.14316227 -0.09901413 -0.031426545 0.11139038
000230 03 52 50 3c 37 3b 01 3c 00 ce 1c bd 80 9c a6 3d
       0.012714866 0.007887653 -0.038282394 0.08135319
000240 de ac 2b 3d 7f 4c 2c 3d 5d f2 9a bd a4 2c fa bb
       0.041912906 0.04206514 -0.075657584 -0.007634716
000250 87 2a 22 3e a6 02 74 bd 5e 98 ba 3c 26 7a ea 3d
       0.15836535 -0.05957284 0.022777732 0.11449079
000260 84 07 11 3b a8 03 f9 bd 3f f4 a2 3b 3c 8b fe 3d
       0.0022129724 -0.121589005 0.004972964 0.124289006
000270 33 67 14 bd 79 8f cf 3d 5d 47 7f 3d 0e 08 54 bd
       -0.03623123 0.10134787 0.062323917 -0.051765494
000280 96 5c c5 bd 1b 94 9a bd bb 54 a4 3d 76 f3 ac 3c
       -0.096368 -0.0754778 0.080239736 0.021112185
000290 bf 71 a5 bd f9 9c 3b 3d 8e 49 a0 3d 84 a5 7f 3c
       -0.08078336 0.045803998 0.078265294 0.015603427
0002a0 5e 4a 54 bc d4 be 15 3d c9 ee 30 3d 15 24 9d 3d
       -0.012957184 0.03655894 0.043196473 0.07672898
0002b0 e4 a6 92 3d 02 f4 88 3d 25 f9 c9 bd 2d d3 5a 3d
       0.07160738 0.06687166 -0.09861974 0.05342405
0002c0 7f 67 ab 3d 09 db 10 3d d0 57 07 3e b2 cb df 3c
       0.0836935 0.03536514 0.13217092 0.02731881
0002d0 9f 7c 9b bd c0 04 22 3d 62 c6 f4 3d f5 2e 9c bd
       -0.07592129 0.03955531 0.11951901 -0.07626144
0002e0 8e 1e 7e bd 0f cd 4b 3d ce 87 29 3e 6c cf 43 bc
       -0.062040858 0.049756106 0.16555712 -0.011951309
0002f0 ab ee c7 bd a6 15 bc bd d6 65 07 3e 39 6c 83 bd
       -0.09762319 -0.091838166 0.13222441 -0.06417126
000300 67 96 4f 3d d7 9e 11 be f0 20 04 3e ea 5a e8 3d
       0.050680544 -0.14220749 0.1290319 0.113454655
000310 05 d5 a4 bd 44 db bc 3d 1e 47 cd 3d 4f 54 36 3e
       -0.08048443 0.09221509 0.1002333 0.17805599
000320 41 89 2a 3e 27 7e ab bd ee 78 93 3d c3 a7 3f 3d
       0.1665392 -0.08373671 0.072008 0.04679085
000330 7b 7d 3e 3e ee 65 f3 3d 6f a0 e2 3c d3 07 0d be
       0.18602555 0.11884676 0.027664391 -0.13772516
000340 fc 47 04 3c a8 e4 dd 3d a6 ae dd 3d cb 38 89 bd
       0.008073803 0.10834628 0.10824327 -0.067002855
000350 af 9b 23 3d 6c c0 e5 3d 21 76 0d 3d 15 f3 80 3d
       0.039943393 0.11218342 0.034536485 0.06296364
000360 96 9a 0e bd 93 92 aa 3d 04 06 03 bd 8d 19 9c ba
       -0.034815393 0.08328738 -0.03198816 -0.001190947
000370 03 fd ce 3d b7 c2 f8 bd 89 e6 36 bd ff 88 11 3d
       0.10106852 -0.12146514 -0.04465345 0.03553104
000380 b9 98 24 3d 8d fe 3f 3d f1 52 94 bd 2e b7 87 3d
       0.04018471 0.046873618 -0.07242382 0.06626736
000390 71 1f a7 bd 71 83 e9 3c 65 6b c1 bc bf 22 05 3e
       -0.08160294 0.028505059 -0.02361078 0.13001536
0003a0 d1 79 e3 3d 11 21 e5 3d 39 97 44 3d 29 9f 27 3d
       0.11107219 0.111879475 0.04799578 0.04092327
0003b0 59 8e eb 3d ee 17 98 bc fd e7 92 bd aa 11 b6 bd
       0.1150176 -0.018566098 -0.071731545 -0.08890088
0003c0 2f d8 a2 3c 2f af ca 3d e1 c0 bd bc c3 f5 e9 3d
       0.019878475 0.09896695 -0.02316326 0.114238285
0003d0 74 fa 94 3d c9 6f a4 bd b0 66 9d 3d fb fc 2d 3e
       0.07274333 -0.08029134 0.07685602 0.16991036
0003e0 ab c8 83 bd 52 f3 19 3e b1 e0 af 3d 33 a0 9b 3d
       -0.06434759 0.15034226 0.08587778 0.07598915
0003f0 24 f3 58 3d ac 3c 2b be 5d db c7 3d 5a 13 f5 3d
       0.052966252 -0.16722363 0.09758637 0.11966582

lstm1.bias_hh_l0 f4 [256]
000000 6a fd b0 bd 65 36 ab 3d 41 bd a6 3c fc 06 f6 3d
       -0.08642085 0.08359984 0.020353915 0.12013051
000010 7a a5 8a bd f5 4b de bd 2c 53 cc bd ab e9 d8 bc
       -0.067698434 -0.108543314 -0.09976801 -0.02647861
000020 3f 19 b1 3d 87 04 05 3d b4 bd 2b 3c 33 08 96 bc
       0.086473934 0.03247502 0.0104822405 -0.018314457
000030 23 67 82 3d 91 a9 4f 3d ea 76 a8 3d cd c9 4c bd
       0.06367328 0.05069882 0.08225806 -0.04999714
000040 5c 57 14 3e 90 db b7 3d 21 e1 0c 3d 78 56 04 3e
       0.1448645 0.08977425 0.034394387 0.1292361
000050 58 4b 99 3d 10 a9 cc 3d ac 17 bf bc ee 98 ba bc
       0.07485074 0.099931836 -0.023326717 -0.022778
000060 70 8c 03 3d 96 5c bc 3a 5e 7d 07 3e fc 57 29 bd
       0.032116354 0.0014370854 0.13231418 -0.041343674
000070 36 87 28 3e 47 b9 d7 3c 13 b7 a6 bd 68 0f e0 3d
       0.16457829 0.026333464 -0.081403874 0.109404385
000080 b6 a9 86 3d 85 91 d9 bd 8e 55 9c 3d d5 7f 0a be
       0.065753385 -0.10623459 0.07633506 -0.13525327
000090 9b 30 f0 bd 7d 0f a3 3d 3e fc 1c bd 7a 2a 80 3d
       -0.11728021 0.079619385 -0.038326494 0.06258102
0000a0 3d db 43 3e 28 6b 62 3d d9 f2 f1 3d 32 55 a2 3d
       0.19126602 0.055277973 0.11813898 0.07926406
0000b0 b8 6f 0b ba a5 a4 8d bd 25 a1 e9 3d 77 b7 19 bd
       -0.00053190766 -0.06916169 0.11407689 -0.03752848
0000c0 9c 48 e6 3d 36 a9 a6 3d e4 69 91 bc 05 9c c2 bd
       0.11244318 0.08137743 -0.017750688 -0.095024146
0000d0 6a 05 93 3d 1f f1 69 bd bc 35 fc 3d dd 9e 89 bd
       0.07178767 -0.057114717 0.123149365 -0.06719754
0000e0 d5 ce 5a bd 5d 24 97 3d 85 dc ac 3b 45 c2 1d 3d
       -0.053419907 0.073799826 0.0052753114 0.038515348
0000f0 09 78 7b 3d 3e 14 de 3a 69 9a ff 3d b7 25 ac 3c
       0.06139377 0.0016943289 0.12480623 0.021014078
000100 6d 39 04 3c a4 a7 13 bd a7 2f 43 bc f9 97 ec 3d
       0.008070332 -0.036048546 -0.011913217 0.11552424
000110 e6 7d 26 ba ba 94 b8 bd a3 13 fb bc 1e 8a f6 3d
       -0.0006351158 -0.09012742 -0.030649012 0.120380625
000120 ca 2a 5e bc 52 00 87 bd 95 42 cb 3d da c2 25 bd
       -0.013560006 -0.06591858 0.09924809 -0.040469028
000130 4f f3 25 3e ed 95 19 3e f1 57 e5 bd 5d 96 9c bd
       0.16206096 0.14998598 -0.11198414 -0.07645867
000140 cb 92 91 3d 68 d9 39 bd 7b d6 da 3d 6b df c6 3d
       0.07108077 -0.04537335 0.1068544 0.09710582
000150 fb 71 a3 bd 2e 00 67 3c d1 f6 d4 bd d8 d4 05 3e
       -0.079807244 0.014099164 -0.10398639 0.13069475
000160 e0 09 7c bd 2e ae e2 3c e9 e0 5f bd db 40 b3 bd
       -0.061532855 0.027670946 -0.05465785 -0.087526046
000170 46 ba 02 bd 03 0b c7 3d 33 fe 4e 3c 61 72 04 3e
       -0.031915925 0.09718897 0.012633848 0.12934257
000180 d1 87 cf 3c d3 0d c9 3d 50 f3 ad bd 68 52 d9 bd
       0.025333317 0.0981709 -0.08493674 -0.10611421
000190 c6 29 d4 bb ba 00 c8 3d e3 2c 9b 3d 47 75 2c bd
       -0.0064747063 0.097657636 0.07576921 -0.042104032
0001a0 a3 4d a0 3d 25 6b af 3d 61 f7 93 bd e5 df a4 3d
       0.07827308 0.08565358 -0.07224918 0.08050517
0001b0 91 9f e6 bc 8d 0c 60 3d 24 ef b2 bd c1 b9 6a bd
       -0.028152259 0.05469947 -0.08737019 -0.057306055
0001c0 31 74 10 be ef 1b 93 3d 1c 48 c5 3d 33 7f 15 bc
       -0.14106824 0.07183062 0.096328944 -0.009124565
0001d0 94 06 b3 bc dd 93 cd bd 4b 47 85 bb 7b ce 1e 3e
       -0.021853723 -0.10037968 -0.0040673367 0.15508454
0001e0 5d b6 4b 3d 5a cc 42 bd 80 05 83 bd 5a 5c 16 be
       0.049734462 -0.047558166 -0.063975334 -0.14683667
0001f0 ef f6 12 3e 19 43 3c bd 06 50 ca 3d 1c b5 aa 3d
       0.1435201 -0.045962427 0.098785445 0.08335325
000200 9f 8b 90 3d 10 ef bd 3c ef fb 3e bd 07 b2 53 3c
       0.070578806 0.023185283 -0.04662698 0.012920863
000210 37 3a f7 bd 4d 09 64 bd 85 4e a9 3d fa f5 07 be
       -0.120716505 -0.055672932 0.082669295 -0.13277426
000220 55 b2 d1 3d f7 fd 04 be 3a 5d e4 bd 5f 8a 9f 3d
       0.10239092 -0.12987505 -0.11150594 0.07790064
000230 df c0 f5 bd 00 13 10 3d 7c 3d a5 bd ec 35 dd 3d
       -0.11999678 0.03517437 -0.08068368 0.108013004
000240 75 74 f3 bd 42 1c de 3b 51 ee a2 bd 3b 4d 37 3b
       -0.11887447 0.006778271 -0.079556115 0.0027969617
000250 2b 12 d3 3d a1 d2 f7 3c 28 af 4f 3d 83 29 2a ba
       0.103062 0.030251803 0.05070415 -0.0006491171
000260 d0 5a 54 bd d9 b0 d3 bc 51 44 9d bd a5 28 0d 3d
       -0.051844418 -0.025841163 -0.07679046 0.03446259
000270 09 b8 37 3b d6 ef 18 bd 96 b9 87 3d a5 6f c7 3d
       0.0028033277 -0.0373381 0.066271946 0.097380914
000280 46 17 29 bd f2 ae 02 be 77 6f 6f bd c6 76 b2 3c
       -0.04128196 -0.12762049 -0.05845591 0.021785151
000290 e5 83 b8 3c 75 d9 97 3d df 3a 2f 3d 8b 41 3d 3c
       0.02252383 0.074145235 0.042780753 0.011551271
0002a0 b2 2b 2b bc 7c 98 dd bd 96 59 4b bc 01 6f 12 bd
       -0.0104474295 -0.108201 -0.012411496 -0.035750393
0002b0 b5 3a 06 be ce a0 d8 bc 49 ea b0 3d db 87 ad bd
       -0.13108332 -0.026443865 0.08638436 -0.08473178
0002c0 80 d1 85 bd bf e3 27 3b 02 12 da 3d f0 2f ef 3d
       -0.065340996 0.0025617925 0.10647966 0.11679065
0002d0 89 3a 2e 3d 78 d8 0d 3d 7d cd 0d 3e 6b b5 01 3d
       0.042536292 0.03463027 0.13847919 0.031667154
0002e0 78 58 8d bd 28 00 ce 3d eb 75 8c bd 7d 44 d5 bc
       -0.0690164 0.100586236 -0.068584286 -0.026033634
0002f0 d3 f8 92 3d c4 8a f0 3c 31 87 09 3e bc 60 ec 3b
       0.07176366 0.029363044 0.13430478 0.00721368
000300 ea c0 9a 3d 5d b4 93 3d 81 f5 cb bd 26 5f c7 3d
       0.07556327 0.07212136 -0.099589355 0.09734945
000310 b5 ba 95 3d 78 5d bc 3d 08 9d b9 3d 28 ba 29 3e
       0.07311002 0.09197515 0.090631545 0.16574919
000320 e6 2c e6 bc c8 38 c4 3c 5b 41 de bc 60 75 d4 3d
       -0.028097581 0.023952857 -0.027130773 0.1037395
000330 cb 62 de 3d 24 8c 42 3d db fc df 3d 80 1c 7b bd
       0.10858687 0.04749693 0.109369 -0.061306477
000340 de 9b b3 39 34 a2 e3 3c cc 8a 8c 3d 2a 81 9c bd
       0.0003425767 0.027787305 0.06862411 -0.076418236
000350 54 3b 06 3e 63 8a 71 bd 01 90 39 bb cb ef ff 3d
       0.1310857 -0.058969866 -0.0028314593 0.12496909
000360 27 f8 7e bd cb 9e 46 bb c8 2b 94 3c e8 88 da 3d
       -0.062248375 -0.003030705 0.018087283 0.10670644
000370 a6 90 88 3d f4 47 2a 3d f9 00 93 bd e9 b7 8f 3d
       0.066682145 0.041572526 -0.0717792 0.070175
000380 63 2f f4 3d 31 91 0f bd 1c 6e 06 3e 21 89 98 3d
       0.11923101 -0.035050575 0.13127941 0.0744803
000390 f5 ff 1a 3d c5 93 85 3d 0a f9 b9 bd bf 58 ec 3d
       0.037841756 0.065223254 -0.090807036 0.115403645
0003a0 d4 7b 0a bd 56 b3 24 3e 0a f4 dc bd f6 34 24 3e
       -0.033809498 0.16084036 -0.10788734 0.16035828
0003b0 d0 da 96 bd 77 50 b3 bd 1d 6e 50 3d 75 46 84 bc
       -0.07365954 -0.08755582 0.050886262 -0.016146878
0003c0 de f5 20 3e ef c4 39 3d 6e ed ac 3d d7 ec e4 3d
       0.15718791 0.045353826 0.084437236 0.11177986
0003d0 29 d1 a5 3d f7 dc b7 3d ca 9f 87 3c 83 fa b5 3d
       0.08096535 0.089776926 0.016555686 0.08885672
0003e0 dc b4 5c 3d f7 16 f3 3d dc 06 aa bb 45 61 82 3c
       0.05388342 0.118696146 -0.005188806 0.015915522
0003f0 db 72 08 3d 6f 40 b5 bd b3 bf 07 bd 63 5d 15 bd
       0.03331266 -0.0885018 -0.033141803 -0.036466014

lstm2.weight_ih_l0 f4 [128, 64]
000000 6e 46 53 3d ab cc 46 3e 9a c9 ba bd aa 1a 1c 3e
       0.05158084 0.19414012 -0.09120484 0.15244547
000010 b0 90 f4 bd 0e 23 e3 3d b1 21 ab bd 80 43 e4 bc
       -0.119416595 0.110906705 -0.083560355 -0.027864218
000020 fa fe 00 be 35 fc 48 be b6 34 30 3e 28 78 0f be
       -0.12597266 -0.1962746 0.17207608 -0.1401068
000030 99 57 8e be a0 25 2f 3e 67 46 69 3d c4 5d ec bc
       -0.27801207 0.17104197 0.056951907 -0.028853305
000040 c6 d2 d0 bd c2 50 30 3d 2b e0 6d 3c 06 36 1f 3e
       -0.10196452 0.043045767 0.014518778 0.15547952
000050 09 e5 24 be c5 a7 21 be ee 0e 8f 3d a0 b9 06 be
       -0.16102995 -0.15786655 0.069852695 -0.13156748
000060 82 38 31 be 44 9a 31 3e 30 30 bb bd b3 fb 1e 3e
       -0.17306712 0.17344004 -0.091400504 0.15525703
000070 6d 9d 16 be 8e 1f 0d be 97 2e 2d 3d 96 d9 19 3e
       -0.1470849 -0.13781568 0.04228076 0.15024409
000080 65 5e b8 3d 32 d7 f5 bd 46 72 10 3d 73 3e 83 be
       0.09002379 -0.12003936 0.03526523 -0.25633582
000090 95 8d f3 3d 9a 36 20 3e 98 0e c0 bd 76 b3 d5 3d
       0.11892239 0.15645829 -0.093777835 0.1043462
0000a0 e3 cc 0e 3e 8f bb 08 be 70 f3 22 3e 53 08 44 3e
       0.13945346 -0.13352798 0.15913177 0.191438
0000b0 51 76 af 3d 68 52 ea bd bc 2e 63 3d 42 07 fd 3d
       0.08567489 -0.11441499 0.05546449 0.123549
0000c0 2b 8d 45 3d 59 41 e4 3d ce d2 aa 3d aa c0 25 bd
       0.04823033 0.111452766 0.08340989 -0.040466942
0000d0 fc af 8f bd f6 eb 0a 3c c7 21 02 3e 15 eb 6e 3d
       -0.07015988 0.008479109 0.12708198 0.05832966
0000e0 cc de d7 3d e7 85 ba bb 25 49 97 3d b0 10 f4 bd
       0.10540542 -0.005692232 0.07386998 -0.119172454
0000f0 95 57 5a 3c 1b 6c 29 3e c4 6d 05 be 2c 60 38 be
       0.013326545 0.16545145 -0.13030154 -0.18005437
000100 0d 0a 8c bd f2 83 42 3e ab 92 cc 3c 86 fb 1f bc
       -0.068378545 0.18995646 0.02497228 -0.009764558
000110 bb 25 4d bd 7b 04 b6 3d 3f d5 64 3d 06 54 67 ba
       -0.05008481 0.08887573 0.05586743 -0.0008824471
000120 80 58 19 be 39 5b 0f bd 18 4f 21 3e c1 bf 96 bd
       -0.14975166 -0.034999106 0.15752828 -0.07360793
000130 5e 97 bd be 52 f3 ab bd 9b 34 57 3e 38 18 0a 3a
       -0.37029546 -0.08396019 0.21016161 0.0005267891
000140 08 1d 27 3d 06 66 2b be 2c c7 50 3d 94 51 b0 3d
       0.04079917 -0.16738138 0.050971195 0.0860931
000150 ad 94 17 3d d0 f9 3c 3e 52 24 27 be 0d c8 47 be
       0.037007023 0.18454671 -0.16322449 -0.19509907
000160 47 e9 84 3d e5 31 e9 3d a6 d6 db bd 6f 49 4d 3b
       0.064898066 0.1138647 -0.107343 0.0031324287
000170 4e dd bd bc f4 45 03 3e 7d cb d7 3c 79 3c be 3d
       -0.023176815 0.12819654 0.026342148 0.09288878
000180 dd a8 c9 3d cb ba 09 be 96 ad ee bd 17 f7 65 be
       0.09846661 -0.13450162 -0.11654203 -0.22457539
000190 b2 fd c9 3d 33 cc ef 3d c2 bf 0b be dc 74 3a be
       0.09862842 0.1170887 -0.13647369 -0.18208641
0001a0 d6 95 97 3e 55 5d 7d 3d c2 42 5c 3d 4a 08 4d 3d
       0.29606503 0.061856586 0.053774603 0.050056733
0001b0 dc dc 1b 3e 53 c8 b4 3d ab 87 37 be a5 55 5d bd
       0.1522097 0.08827271 -0.17922847 -0.054036755
0001c0 16 6c 0e be 13 86 9b bd 44 f8 2b 3d 97 c0 34 bd
       -0.13908419 -0.07593932 0.04198481 -0.04412898
0001d0 6b e8 8d bd 7a c6 1c 3e 89 00 b3 bb 60 fc 9a be
       -0.06929096 0.15310088 -0.0054627103 -0.30270672
0001e0 ae ff 06 be 9c 42 e1 bd ee e9 4e 3b 43 d0 ac bd
       -0.13183472 -0.10999033 0.0031572538 -0.0843816
0001f0 c3 fb 17 be d1 cc 62 bd 76 8a 09 3c 39 a0 21 bd
       -0.14842133 -0.05537111 0.008394828 -0.03945944
000200 b9 14 91 3d d4 34 5b 3e 68 40 19 3e 4e 8d a1 3d
       0.07084031 0.21406871 0.14965975 0.0788828
000210 78 99 ca 3d 54 4e 52 be ef 53 e2 bb 7d 56 ba 3d
       0.09892553 -0.20537692 -0.0069069783 0.090985276
000220 14 37 b2 3b 8e 2a 6b be fa c6 4c bd b1 09 f8 3c
       0.0054386947 -0.22965452 -0.049994446 0.030278059
000230 54 74 de be 0b 43 87 3d 3c 67 ad bd 3f 7b 4b be
       -0.43448126 0.06604584 -0.08466956 -0.19871233
000240 b4 49 6a 3d 00 5d 64 3e 6f 19 4b 3d 0f ca fd 3e
       0.057199195 0.22301102 0.049584802 0.4956822
000250 bd d6 3f 3c 69 c1 b4 3d 98 f2 a2 bd 07 08 04 be
       0.011708912 0.088259526 -0.07956427 -0.12893687
000260 25 3b 7f be c8 f7 32 be 31 49 15 be a0 55 ef 3c
       -0.24924906 -0.17477334 -0.14578702 0.029215634
000270 1a 81 77 3d e1 b6 0f bc b4 f3 2b be a0 fe 8e 3e
       0.060425855 -0.008771629 -0.16792184 0.27928638
000280 37 56 ec bd 32 c4 1d 3e fc 32 29 3e d3 5b f3 be
       -0.11539882 0.15406874 0.16523355 -0.47530994
000290 ee 38 25 3d fd b6 2a 3e 77 7d 6f 3d 5f 26 8a bd
       0.040337496 0.16671367 0.058469262 -0.067456
0002a0 51 fd 24 3f 0d 47 94 bd ab c1 8b 3e 48 b9 07 bd
       0.6444903 -0.07240114 0.27296194 -0.033135682
0002b0 7d 6b 6d be 24 9c 55 3e 1c e6 84 3d 87 49 c3 3c
       -0.23185535 0.20860344 0.064892024 0.023838772
0002c0 4e 2f 44 bf 8a 29 b2 3c 17 27 01 3e 39 f4 99 3e
       -0.7663468 0.021748323 0.12612568 0.3006914
0002d0 8e 38 85 bb d2 48 4b bd 6d 6d 29 3e 28 e3 59 bd
       -0.0040655797 -0.049629994 0.16545649 -0.05319515
0002e0 c1 f6 82 3d 9e ce d1 3c f8 50 cf 3d 81 df a5 3d
       0.06394721 0.025611218 0.101228654 0.080992706
0002f0 05 f8 1b be e0 82 4f 3d e7 7b a2 3c b2 3b ec bc
       -0.1523133 0.05066192 0.019834472 -0.028837059
000300 f4 b4 9f bd e2 bd 6a 3d d2 07 07 3d d3 84 73 bb
       -0.07798186 0.057309993 0.032966442 -0.0037158027
000310 32 d9 5c bd bd bc 55 be 44 85 21 3e ea 4f 60 3e
       -0.05391807 -0.20872779 0.15773493 0.21905485
000320 af c2 81 3b 14 9e 24 bd 93 fc de 3d c2 a3 ca 3c
       0.0039599757 -0.040189818 0.108880185 0.024736289
000330 90 e0 e2 be 27 cd e4 bd f7 cb 08 3d ec 53 9c bd
       -0.44311953 -0.11171942 0.03339764 -0.07633194
000340 d2 4e 55 be 4e d8 21 bd 43 ce f8 3d 18 9f 9d 3e
       -0.20830849 -0.039512925 0.12148716 0.3078544
000350 9c 1a 8a 3b e4 8e 61 bd fe 0d 11 be 18 2f b4 3d
       0.004214598 -0.05506791 -0.14165494 0.08798045
000360 9a 0d a2 bd 08 43 02 be 2c e9 62 3e 08 cf 88 bc
       -0.079127505 -0.12720883 0.2215926 -0.016700283
000370 d3 23 d2 3d 64 fc 87 3d 31 8f c4 bb 30 59 0c 3e
       0.10260739 0.066399366 -0.005998515 0.13705897
000380 fc 23 1b bd 6d e4 83 bd 92 e4 57 3e 56 73 f1 be
       -0.037876114 -0.06440053 0.21083286 -0.47158307
000390 27 12 d8 3d 6c 5b 52 3e c6 71 6d be f0 a5 87 be
       0.10550337 0.20542687 -0.23187932 -0.26493788
0003a0 c8 2f 03 3f a8 50 9b ba 04 b0 af bc 38 5c 06 bd
       0.51244783 -0.0011849599 -0.021446235 -0.03280279
0003b0 e4 ac e1 bd ac 24 02 3e d9 6c 52 bd c5 ed 0e be
       -0.110193044 0.12709302 -0.051373336 -0.1395789
0003c0 b2 3a 07 bf 5c 68 73 3d 02 9c 32 3e c9 6e 6e 3e
       -0.52823937 0.059425697 0.17442325 0.23284449
0003d0 0e c2 ad 3d 38 56 a8 3d 42 34 50 3e 71 aa 03 bd
       0.084842786 0.0821957 0.20332435 -0.032144967
0003e0 23 9f 66 bc 18 4d ca bd 90 24 83 3d 44 f3 db 3d
       -0.014076027 -0.09877986 0.06403458 0.107397586
0003f0 75 fa 5c be c4 60 93 3d 2d f8 d8 3d 77 46 52 3d
       -0.21579917 0.07196191 0.10594211 0.05133673

lstm2.weight_hh_l0 f4 [128, 32]
000000 3d f3 3e 3e 54 a0 53 3e a1 6c 9e 3d 34 a3 c5 3c
       0.18647476 0.20666629 0.07735563 0.024125673
000010 34 83 cc 3c e2 ad 65 be 41 3f bc 3d 45 38 58 3c
       0.024964906 -0.22429612 0.09191752 0.013197009
000020 bc c7 dd bd 2c 03 42 3d 6a b8 e0 3d 54 2c 50 bd
       -0.10829112 0.047366306 0.10972674 -0.050823525
000030 d5 52 65 3e 05 26 c9 bd 08 fe b1 3d 9f c3 29 be
       0.22394879 -0.09821705 0.08691031 -0.1657853
000040 61 91 1c be a6 4c fd 3d 95 8c 5b 3e 28 b9 e3 bd
       -0.15289833 0.12368135 0.21440347 -0.111193
000050 d7 2e 4c 3e 7d cb 98 3d 83 c7 f6 3c cc d9 bf 3d
       0.19939743 0.07460687 0.030124431 0.09367713
000060 a1 b3 4a be ed 7f 30 3d 74 2d 09 3e 23 20 fd bd
       -0.19795085 0.04309075 0.13396245 -0.12359645
000070 0a 57 90 bd cf 0e 35 3d a7 df 66 be d9 8e 70 bd
       -0.070478514 0.044203576 -0.22546254 -0.05872998
000080 3b fc 35 3d a1 49 a2 bd 46 29 a2 bd b9 21 18 bd
       0.04443 -0.079242 -0.079180285 -0.037141535
000090 e6 d1 d2 bd 5e 0d 6f be 05 57 71 bd 8f dd 1c bc
       -0.10293941 -0.23344943 -0.05892088 -0.009574308
0000a0 96 ea c0 bd 5e c2 34 3d 8f 03 06 3e e6 72 b6 3b
       -0.09419744 0.044130675 0.13087295 0.005567896
0000b0 98 84 34 bd b9 71 34 3e cc 57 0c be c9 f8 18 bc
       -0.044071764 0.17621507 -0.13705367 -0.009336659
0000c0 47 85 29 3d 58 25 8f bb 1b 89 0e bd 5e cb 7a 3c
       0.04138687 -0.0043684654 -0.034798723 0.015307276
0000d0 ef 90 37 3e b0 47 c3 bd 0c 33 2e bd 6c fe 7e be
       0.17926382 -0.09535158 -0.04252915 -0.24901742
0000e0 5f 3e cd 3d aa 58 1a 3d c1 29 19 3e 15 8a cb bd
       0.10021662 0.037682213 0.14957334 -0.099384464
0000f0 87 f7 3c 3e 47 33 eb 3d 07 09 49 be fa 44 d9 3d
       0.18453799 0.1148439 -0.1963235 0.10608859
000100 43 33 b6 3d a9 c5 32 bd e1 65 ca bd 40 49 09 bd
       0.08896496 -0.043645535 -0.09882713 -0.033517122
000110 41 49 61 3b 49 3c cb bd da 75 52 3d 96 18 1a be
       0.0034375938 -0.09923608 0.051381923 -0.15048441
000120 a0 cf f1 bd c3 ef 37 3c 83 a0 ac bd 85 f2 4f 3e
       -0.118071795 0.011226597 -0.08429053 0.20307358
000130 0d 29 8f 3b 11 9b 5d 3d ca 07 88 bd 33 23 b9 bd
       0.0043689073 0.05410296 -0.06642111 -0.09039917
000140 7c ba 94 3c 89 a7 96 3d 8c dd 47 3e 29 80 03 bd
       0.018155329 0.073561735 0.19518107 -0.032104645
000150 0e 8e c4 3d 09 82 1d bc 9b 83 db 3d 27 0f e3 bd
       0.09597407 -0.009613522 0.10718461 -0.110868745
000160 9c 3a df bd 16 8e 15 be 6f 5b 30 3e ec a7 a2 bc
       -0.10899851 -0.14604983 0.17222379 -0.019855462
000170 7e 8c ce 3c 01 81 97 3d 7d 43 ec 3c 49 cb b4 3b
       0.025213476 0.073976524 0.028840775 0.0055173975
000180 67 03 b3 3d 53 87 91 bd 9c dc 40 3d 96 88 90 bd
       0.08740883 -0.07105889 0.04708539 -0.07057302
000190 9b bd 19 be 21 b8 6d be 00 03 80 3e 9e fb 45 be
       -0.15013735 -0.23214771 0.2500229 -0.19334266
0001a0 6f a4 22 3e 12 dc 8c 3d 92 58 d3 3d a8 dd 3a bc
       0.15883039 0.068779126 0.10319628 -0.011405386
0001b0 c2 19 22 3d 4e 2e 08 be f3 ef 8c be 27 78 8d be
       0.039575346 -0.13298914 -0.27526817 -0.2763073
0001c0 5c 57 14 3e 54 45 f4 3d bc 06 a5 3b b4 0e 05 be
       0.1448645 0.11927286 0.005036203 -0.1299389
0001d0 a8 a3 a7 3d 73 ac 3d 3d d8 cf 52 bd a7 15 81 bd
       0.08185512 0.04630704 -0.051467746 -0.06302958
0001e0 76 ac b6 bd cc 8e ca bd e1 77 16 3e b3 bc 5a be
       -0.08919613 -0.098905176 0.14694168 -0.21361046
0001f0 00 3a e1 3d e2 43 26 3e 52 9d 72 be 68 22 27 bd
       0.10997391 0.16236833 -0.23692825 -0.040804297
000200 5b f1 51 3e db c9 6b bc 6c 51 a2 bd 7b 5b 28 be
       0.20502226 -0.014391388 -0.07925686 -0.16441147
000210 d8 fe e4 bd 72 c6 46 be 2e 05 1f bd ef ee 5d be
       -0.1118142 -0.19411638 -0.0388233 -0.21673177
000220 88 fc 36 bd 40 b2 81 bd 2c 99 bb bd 5b b8 b7 3d
       -0.044674426 -0.063328266 -0.091600746 0.0897071
000230 0c 4c 09 3c 8b a1 4a 3e d5 c6 e8 bd dc 82 19 be
       0.008379947 0.19788186 -0.11366049 -0.14991325
000240 31 83 02 be c2 21 1d 3e 54 4d 40 3d f1 ad 08 be
       -0.12745358 0.15344909 0.046948746 -0.13347603
000250 8f 4c 28 3d ef 21 95 3d 31 82 e1 bd e2 7c 8c 3d
       0.041088637 0.07281863 -0.1101116 0.06859757
000260 04 da d5 bc 45 e6 12 be 17 a3 27 3e 3f 8f cc 3d
       -0.026104935 -0.14345653 0.16370808 0.099882595
000270 0a a8 13 bc 67 17 28 bc 6e 12 52 be be b6 37 3e
       -0.009012232 -0.010259486 -0.20514843 0.17940804
000280 f5 4b 65 bd 60 ef 0a 3c 8a 74 12 bd a0 d4 0f be
       -0.05598064 0.008479923 -0.03575567 -0.14045954
000290 e1 f9 28 bd 92 76 16 3d 5b d0 15 3e 61 64 77 3d
       -0.041253928 0.03673417 0.14630263 0.060398463
0002a0 83 60 3c 3e ff 5c 74 3d 14 31 17 3e c4 c5 d3 3d
       0.18396191 0.059659 0.14764816 0.10340455
0002b0 47 c2 de 3d 99 00 f1 3d 11 71 25 be 45 da 3e bc
       0.10876899 0.11767692 -0.16156413 -0.011648719
0002c0 8b d4 e3 bc ca 26 c3 bb cb ac d5 3d d8 53 b2 bd
       -0.02781131 -0.0059555518 0.10433348 -0.08707398
0002d0 10 30 1f 3d f0 e1 bd 3d 4b 46 33 3e c8 a5 01 3e
       0.038864195 0.0927161 0.17507283 0.12660897
0002e0 0e 3a 0d 3d 33 d5 51 bc b7 36 f9 bd 3e b0 13 3d
       0.034479193 -0.012807178 -0.12168639 0.03605675
0002f0 e7 f4 0d 3e d7 74 e2 bd 64 23 86 3d 41 bd 25 3e
       0.13862954 -0.11057442 0.06549719 0.16185476
000300 fb a7 98 bd e5 84 02 be 0a 4a d2 bc a4 bf f4 3c
       -0.07453915 -0.12746008 -0.02567007 0.029876538
000310 c1 a2 2c 3c 55 81 3c bd 4f 6e 8b 3d 25 f1 21 be
       0.01053685 -0.046021778 0.06808149 -0.15814646
000320 fb 73 26 3e c1 37 5c 3e fb 93 07 be f4 b3 70 3e
       0.1625518 0.21505643 -0.13240044 0.23506147
000330 b8 1c 2d 3e 2e cf 51 bd 15 28 22 be 38 fd 10 bd
       0.16905487 -0.051222973 -0.15835603 -0.03539774
000340 39 f7 fd bd 06 db 1c 3e 53 49 3f bd df 7b 71 3d
       -0.124006696 0.15317926 -0.046700787 0.058956023
000350 1e 0d e7 bd e7 82 e1 bd bb 13 16 be 9f b2 f9 bd
       -0.11281799 -0.11011296 -0.14655964 -0.121922724
000360 96 8f e3 bc 42 7e a1 bb cb 25 e3 3b 9e 8e cf 3c
       -0.027778428 -0.004928381 0.0069319955 0.02533656
000370 18 e1 0a 3e 6e 2d 07 3d a3 fe 53 be ea 75 aa 3d
       0.13562429 0.03300231 -0.20702605 0.083232716
000380 46 f0 fe 3d e4 60 29 3e 29 2a 4e be d3 f2 8a 3d
       0.12448172 0.16540867 -0.2013327 0.06784596
000390 51 70 85 bd 90 0c 10 bc e3 ae 21 bd 0d ba 48 be
       -0.06515563 -0.008792058 -0.039473426 -0.19602223
0003a0 10 cb ad bd 56 80 e3 3c 95 08 f1 3c 77 b7 eb bb
       -0.08485997 0.027771156 0.029423038 -0.0071935016
0003b0 74 25 a2 bd b3 55 79 3d 5c 1e d4 bd 9a 8d 3b be
       -0.079173 0.060872745 -0.10357353 -0.18315735
0003c0 12 22 c1 3d 73 e9 2c 3d 6e 17 fd 3d 78 61 e0 bd
       0.094303265 0.042214822 0.123579845 -0.10956091
0003d0 65 d9 1a 3c 47 71 86 bd e5 52 18 be a1 3e 50 3d
       0.009451245 -0.06564575 -0.14875372 0.050840978
0003e0 f3 b7 df 3d 83 d2 02 bd 21 c4 6f bd cd 09 9a bc
       0.109237574 -0.03193904 -0.058536652 -0.018803502
0003f0 28 ca fe bd 12 d6 98 3d a2 91 d3 bd 41 77 0f 3e
       -0.12440902 0.07462706 -0.10330512 0.14010336

lstm2.bias_ih_l0 f4 [128]
000000 ba 05 d0 bd 23 07 3d 3e 16 51 0f 3e 20 2f 88 3e
       -0.10157342 0.18459754 0.13995776 0.26598454
000010 86 46 0f 3e ca 27 29 3e 87 fd e6 bd 74 0c ca 3c
       0.13991746 0.16519085 -0.11278825 0.024664141
000020 23 6a 30 3e fd e9 10 3e 5a 92 80 3e 19 dc 20 bd
       0.17227988 0.1415176 0.25111657 -0.0392724
000030 30 f4 22 3e 0f 57 fa 3d fd 9b 04 3d ab 83 08 3e
       0.15913463 0.12223636 0.032375325 0.13331477
000040 a2 e8 ad ba dd 3f f2 bd 81 4b 07 bc 3c 2b 1a 3e
       -0.0013268183 -0.11828587 -0.008257748 0.15055555
000050 75 85 49 3e 9c d7 6d 3c 2a c7 48 3e 8b fc f9 3d
       0.19679816 0.014516737 0.19607225 0.12206372
000060 79 b8 98 bc aa 31 4e 3e 7f 78 8e bd 8d 01 0b 3e
       -0.01864265 0.20136133 -0.069565766 0.1357481
000070 5a ed 91 bc e8 73 66 3e 98 9f bc bb c4 bc e1 3d
       -0.017813373 0.22505152 -0.0057563297 0.11022332
000080 1a 3c 39 3c 4e 29 03 3d dc b7 d2 3d 12 cd 74 3c
       0.011305833 0.032021813 0.10288975 0.014941471
000090 64 e1 c1 bd 2e 06 01 3e 84 d6 50 bd a6 8b c9 3d
       -0.09466818 0.12600014 -0.050985828 0.09841089
0000a0 4d 62 5b be 1e d3 4b 3d dc 5f e2 bc 4c 83 47 bd
       -0.21424218 0.049761884 -0.0276336 -0.0487092
0000b0 47 ab 3d be d4 10 b7 3c 0e 80 54 bc 48 bf 14 bc
       -0.18522368 0.022346891 -0.012969984 -0.009078808
0000c0 ad 0c 6e be f4 e1 7a 3c 60 5b 1f be bc f6 a9 3d
       -0.23247023 0.0153126605 -0.155622 0.08299014
0000d0 65 31 1d be 9e db a5 3d 60 66 4e be 97 f6 ff bd
       -0.15350874 0.08098529 -0.2015624 -0.12498205
0000e0 36 27 24 3e c8 16 cd bd 32 66 11 be 4c 5c ac 3d
       0.16030583 -0.10014111 -0.1419914 0.08416042
0000f0 e9 b1 80 bd b7 cd 43 3d 92 79 35 3e 85 a5 21 be
       -0.06283934 0.047803607 0.17722157 -0.15785797
000100 aa 91 25 3e ee cb 0f 3d 12 a6 3d be d1 e9 9a 3d
       0.16168848 0.035106592 -0.18520382 0.07564128
000110 25 a9 ba 3d 92 e1 d3 3b ff 78 35 3e 61 6e 80 bd
       0.09114293 0.006466099 0.17721938 -0.06271053
000120 b5 da 1a 3e db cf 84 bc b3 05 eb 3d 65 b2 e8 3d
       0.15122493 -0.016212394 0.114756964 0.11362151
000130 10 fe 30 be cb 6b e3 3d f7 7c 0c 3e ee a3 db bd
       -0.17284417 0.11104544 0.13719545 -0.107246265
000140 31 b4 30 3d 1b f1 60 3d 49 52 a3 3d 9c d6 85 bd
       0.043140594 0.054917436 0.07974679 -0.06535074
000150 02 55 30 3e e7 7f 61 3e 88 27 26 bb 92 af 10 bd
       0.17219928 0.22021447 -0.0025353152 -0.035323687
000160 ef 80 f3 3d 63 dd 4d be 28 ad e4 bc a7 96 2c be
       0.118898265 -0.20103984 -0.027914599 -0.16854344
000170 e9 22 0d 3e 28 f2 b7 bd 6f 8e c8 3d f4 03 36 3e
       0.13782848 -0.089817345 0.09792792 0.17774945
000180 31 29 ac 3c cc f1 28 bc 66 60 0a 3e d0 9d 89 3e
       0.021015735 -0.010311555 0.13513336 0.26878214
000190 ca 1e 95 bc 40 8e 3f 3e 2d 0f 2b 3e c6 1a 49 3d
       -0.018203158 0.18706608 0.16705008 0.0490978
0001a0 f6 f4 6b 3e 82 ba 1a bc 69 41 44 3e a8 5c 8c bd
       0.23042664 -0.009443881 0.19165577 -0.0685361
0001b0 28 4c c7 3d e0 b6 42 bb 36 0c a2 3d 18 44 81 3e
       0.097313225 -0.0029711053 0.07912485 0.25247264
0001c0 25 b4 08 3e e9 b5 af 3c c9 f7 ea 3d 11 48 0f 3d
       0.1334997 0.021449046 0.114730425 0.034980837
0001d0 b2 0f 86 3e 9d 9f 4a 3c a3 bd 25 3e 3a 64 f9 3c
       0.2618385 0.012367156 0.16185622 0.0304433
0001e0 42 cf b2 3d b8 42 b3 3d f3 96 80 3d 7b 37 3a 3c
       0.087309375 0.0875296 0.06278791 0.011365767
0001f0 55 99 8f 3d 8b 1f 09 3d 40 c6 69 3e 7f c8 28 be
       0.07011668 0.033477347 0.22829533 -0.16482733

lstm2.bias_hh_l0 f4 [128]
000000 48 2a bd bd 5d 03 04 3e 76 c9 66 bd eb ec 73 bd
       -0.0923658 0.12891908 -0.056344472 -0.059552114
000010 96 e5 10 3d 7a e6 e2 bd 6c 2d 5f 3e eb 03 1f bd
       0.0353752 -0.11079116 0.21794671 -0.038822096
000020 fc 0b 2c 3e fc 03 37 3e 4e 83 ae 3d ae fa 98 bd
       0.16801447 0.17872614 0.08521138 -0.07469688
000030 64 d1 21 3e 9b da b8 bd 54 fc 5e 3d 6d 3f e2 bd
       0.15802532 -0.09026071 0.054439858 -0.11047254
000040 7e 20 b7 3d bc 30 5e 3d 8c 15 0f be 3f d4 a3 bd
       0.08941744 0.054245695 -0.13973063 -0.07999467
000050 77 01 0b 3e 29 cf 29 3e 81 e7 0a 3e 68 28 2a 3e
       0.13574778 0.16582932 0.13564874 0.16616976
000060 9a 65 0d 3e 7b bf 08 3e 2b 45 89 3e 12 2b 63 3e
       0.13808289 0.13354294 0.26810583 0.22184399
000070 75 3e ee bd 52 68 a2 3d 9e 2c 19 3e 53 8c 04 3e
       -0.116330065 0.07930054 0.14958426 0.12944154
000080 26 7b 03 3e a8 e9 39 3e ea db e1 bd 97 3b 8f bc
       0.12839946 0.18155539 -0.110282734 -0.01748447
000090 8e 6d eb bb 38 b0 04 be 72 8a b4 bd 3f ba 27 bd
       -0.007184691 -0.12957847 -0.08815469 -0.040949102
0000a0 a8 4a a9 3a 97 f8 12 be d8 fb 0e 3e 27 05 ad 3d
       0.0012915926 -0.14352642 0.13963258 0.08448248
0000b0 d0 13 98 bc f9 59 2d be 98 08 22 3e e1 39 35 3e
       -0.018564135 -0.16928853 0.15823591 0.1769786
0000c0 ba 18 12 be c4 ef 7a bd ed 57 ce 3d b4 66 37 bc
       -0.14267245 -0.061263815 0.10075364 -0.01119392
0000d0 d2 fc af 3c e1 ba 2b be d4 49 00 3d b3 28 2b 3e
       0.021482859 -0.16770507 0.031320408 0.16714744
0000e0 0d d3 13 3d 15 49 20 bd 82 5d 9a bd 78 b0 fb bb
       0.036089946 -0.039132196 -0.075373664 -0.007680949
0000f0 3f 74 db 3d 09 e9 f2 bd 29 6d 06 3e b9 b8 3d bd
       0.107155316 -0.11860854 0.13127579 -0.046318743
000100 17 89 ef bc 4c cf da 3d 92 6f f3 bd a9 81 9a bb
       -0.029240174 0.1068407 -0.11886515 -0.0047151637
000110 9a d7 98 bd 3e 81 cf bd 13 bd 3c 3e d0 cc 3d be
       -0.07462998 -0.10132073 0.18431501 -0.18535161
000120 1b 4a cd bd b5 7b f8 3d 65 2e fd 3d fb 27 cb bd
       -0.100239 0.1213297 0.12362365 -0.09919735
000130 95 13 9a 3d 13 6a 32 be 86 34 37 be 06 7e 2f 3d
       0.07523266 -0.17423277 -0.1789113 0.042844795
000140 12 ea 88 3d c0 c8 52 3e 37 5f 12 3d 65 6d 97 bb
       0.0668527 0.20584393 0.035735335 -0.004621195
000150 d8 cb 3a 3e 81 61 d0 bd 14 bb f1 bd 23 8c bc bc
       0.18241823 -0.101748474 -0.118032604 -0.023016041
000160 5d 82 27 be 2c 7f 9d bd 2a 2a b7 3c 03 7f 16 3e
       -0.16358323 -0.07690272 0.022358973 0.14696889
000170 0c 0a ce bc ec 6c 39 3e b7 f4 3b bb d8 55 79 bd
       -0.025151275 0.18107957 -0.0028679797 -0.060872883
000180 63 2d 80 3d 27 b3 e6 3d 34 97 0b 3e f7 95 07 bd
       0.06258657 0.11264639 0.13631898 -0.033102002
000190 05 a4 ac 3d 2c 88 9f bd f0 9d 93 bb e8 da 01 3e
       0.08429722 -0.077896446 -0.0045049116 0.12681162
0001a0 42 b2 16 3e 15 15 1c be bf a9 f9 bc 77 33 6e 3e
       0.14716437 -0.15242417 -0.030476449 0.2326182
0001b0 fe 6d a9 bd 6b 39 40 3d 64 6b 08 3e a7 8a 37 3e
       -0.082729325 0.046929758 0.13322216 0.17923985
0001c0 83 ef 69 3c c5 b3 53 3d 45 87 ef 3d 3e 51 f6 3d
       0.014278295 0.051685113 0.116957225 0.120272145
0001d0 0b ac 63 3e d3 9e 52 3d 85 ce 79 3e e8 93 14 bd
       0.22233598 0.051420998 0.24395187 -0.036273867
0001e0 d6 c7 1c bd 30 96 69 3e c1 19 2a 3c a4 72 23 3e
       -0.038276516 0.22811198 0.010382117 0.159617
0001f0 82 cd cb bc dd d9 0c 3e 7b 39 c4 3d a9 12 14 3e
       -0.024878267 0.13754983 0.09581276 0.14460243
