network_model/models/network/autoencoder.pt (torch, 38390 bytes, 16 tensors)

encoder.0.weight f4 [64, 20]
000000 ad c1 03 3e ed 64 45 bd 07 94 67 3d 44 bd 53 3e
       0.1286685 -0.048191953 0.056537654 0.20677668
000010 9b ec e7 3d 3e 6f de ba 5e 25 45 be 3d 9c d1 3d
       0.11324426 -0.0016970409 -0.19252536 0.10234878
000020 ff 42 a8 3e d0 3a 2b be f7 2e 3f 3e 6a 8d 2c bd
       0.32863614 -0.16721654 0.1867026 -0.04212705
000030 4b 8d db 3d 89 a9 55 bd a3 bc 08 be e1 4e 85 3d
       0.10720309 -0.052163634 -0.13353209 0.065091856
000040 74 52 ea bd 40 79 c3 be 03 58 8b bd ad d8 b2 be
       -0.11441508 -0.38178444 -0.06803896 -0.34930936
000050 92 f5 c0 3d 69 06 91 bd e1 55 0c be 32 6e 31 3e
       0.09421839 -0.07081301 -0.13704635 0.17327192
000060 3e 0b 21 be 48 21 b0 3e 60 11 3f 3e ef c1 3c 3e
       -0.15726945 0.34400392 0.18658972 0.18433355
000070 69 08 21 be 50 24 e1 3e ae af 27 bd e3 1c 0b be
       -0.15725864 0.43973017 -0.040939026 -0.13585238
000080 78 db 52 bd fc 9d 7f 3e c6 15 8b 3d e2 2d 98 3d
       -0.051478833 0.2496261 0.06791262 0.074306265
000090 a2 b9 42 3e dc c9 97 3d 3a 7d 14 be 25 3a a1 3d
       0.19016126 0.074115485 -0.14500895 0.07872418
0000a0 33 03 46 be 48 c4 cb 3d a3 7d 4d be aa 0b 62 3e
       -0.19337158 0.09949547 -0.20067458 0.22074762
0000b0 de ad 41 be 80 20 63 bb ac 0f 83 3d 6c 56 8e 3d
       -0.18913981 -0.0034656823 0.063994735 0.069500774
0000c0 00 38 f9 b8 78 cd 13 be 78 04 27 3e 47 ad 23 3e
       -0.00011883676 -0.14433849 0.16310298 0.15984069
0000d0 f0 c0 03 bc e9 bb 4e be 8c e0 e0 bd 14 36 47 bd
       -0.008041605 -0.2018887 -0.10980329 -0.048635557
0000e0 c8 54 74 bd f8 c1 38 3d d0 b6 a9 bc 10 a0 11 3e
       -0.059651166 0.045106858 -0.020717055 0.14221215
0000f0 06 0a 40 3e d6 04 35 3e 89 8c 47 bd ae 38 36 be
       0.18753824 0.17677626 -0.04871801 -0.17795059
000100 70 57 f6 3d f6 37 28 bd f6 e8 7c 3d 3f 71 02 3f
       0.12028396 -0.041068994 0.061745606 0.5095405
000110 aa 4d 16 3c 58 15 88 be ba 82 4f be b0 07 f4 3d
       0.00917379 -0.26578784 -0.20264712 0.11915529
000120 ea cb 90 3e fc 21 28 3f f4 95 0f 3e 8a 9f 15 be
       0.28280574 0.65676856 0.14022046 -0.1461164
000130 8e 9b 04 be 85 f1 a7 3d f9 d1 2e 3d 68 49 3e bd
       -0.12949964 0.08200363 0.042680714 -0.046456724
000140 00 96 3e be 48 af 79 3e 7e 9e 27 3e 1e 9e 7a 3e
       -0.18611908 0.2438327 0.16369054 0.2447438
000150 1a a4 03 3e 9e 87 8f 3e 4e 82 80 3d f5 21 3e 3d
       0.12855569 0.28033155 0.06274854 0.046419103
000160 11 03 54 bf e7 43 07 3e c4 ad e9 3d ae f3 17 bc
       -0.8281718 0.13209496 0.11410096 -0.009274406
000170 f2 6a b7 3e 7a 6d 43 3d 52 41 2c 3e cc 25 91 bd
       0.3582378 0.047711827 0.16821793 -0.07087287
000180 32 a6 15 3d aa 87 55 be 2f df 8f be 48 22 ee bc
       0.03653545 -0.20852533 -0.28099963 -0.029069081
000190 0a fa 0a 3e d1 c8 8b 3e 39 ef 24 3c 03 88 cd 3e
       0.13571945 0.27301648 0.010066801 0.4014283
0001a0 3a e0 a4 bd 82 42 c7 3c a4 d8 ad 3e b2 bc d3 bd
       -0.0805058 0.024323706 0.33954346 -0.10338725
0001b0 09 bd 0d 3d 00 e5 bd 3e 5b 0c e8 3d 8c 94 0c 3c
       0.034604106 0.37088776 0.113304816 0.008580338
0001c0 f5 fa 3d 3e 58 3f 89 be 3b 7e 25 bd 0a 14 02 bd
       0.18552764 -0.2680614 -0.040403586 -0.031757392
0001d0 89 2b b7 bd df 49 9a bd 2a 54 f0 bd 12 ba 0b 3d
       -0.089438505 -0.07533621 -0.11734803 0.034112997
0001e0 52 57 aa 3e 4f 75 72 bc 40 30 d2 3d 7b 99 9d bd
       0.33269745 -0.014798476 0.10263109 -0.0769529
0001f0 8d 76 d4 bd c7 5b 63 bd 32 22 91 3d 1e 91 97 bd
       -0.10374174 -0.055507448 0.070866 -0.07400726
000200 6d 99 3b bd 35 91 1b 3e 86 e4 99 3e 39 75 69 3c
       -0.045800615 0.15192111 0.30057162 0.014249139
000210 9d c9 2b be c6 f5 93 3d 88 91 72 bd 41 c7 ff bd
       -0.16776128 0.07224612 -0.05922082 -0.124891765
000220 d4 45 84 be a4 d7 39 bc 7f 97 6a be cd 31 22 bd
       -0.25834525 -0.011342917 -0.22909354 -0.039598275
000230 9e b0 be bd 30 54 0f 3d f0 c0 18 bd 55 b5 e5 bd
       -0.09311031 0.034992397 -0.037293375 -0.11216227
000240 98 e8 99 3d 7c cb c9 bd 56 b6 8f bd d4 7f 2b 3e
       0.07515067 -0.09853265 -0.070172 0.16747981
000250 10 ce a4 bd a4 80 39 3e 40 23 04 be 70 b7 f5 bc
       -0.08047116 0.18115479 -0.12904072 -0.029994696
000260 f0 85 fb 3d 12 da e4 bd d4 39 0c 3e 5c a2 09 bd
       0.12281406 -0.11174406 0.13693935 -0.033602104
000270 dc ea bc 3d a0 7c da 3d de fd e0 bd e0 7e 0b 3d
       0.09224483 0.106683016 -0.10985921 0.034056544
000280 3b 68 c3 3d f5 b4 b9 3d 84 1f 4d be dd fd 2d 3e
       0.09541365 0.09067718 -0.20031554 0.16991372
000290 d9 f0 c6 bb 1e 8b 63 3e a9 d4 1c 3e 12 1a cb bd
       -0.0060711917 0.22221038 0.15315498 -0.09917082
0002a0 d5 0a eb bd a8 f8 2e 3e 09 5e dd bd 59 26 31 3d
       -0.114766754 0.17087042 -0.108089514 0.04324946
0002b0 51 aa b3 bd 46 ad 94 bd a3 02 48 3e a6 16 8a 3e
       -0.0877272 -0.07259612 0.19532256 0.26970404
0002c0 fa f6 0d bd f4 f2 21 3e 1e 22 3a 3e 3b 42 36 3e
       -0.034659363 0.15815336 0.18177077 0.17798702
0002d0 0f c1 d9 3d 45 bf aa 3e 6b c3 60 3e f3 b8 a5 3e
       0.10632526 0.33349052 0.21949546 0.32367668
0002e0 e9 be 9f 3e de 4b af bd 99 fa 0a 3e bc a4 9b 3d
       0.3120034 -0.085593924 0.13572158 0.0759978
0002f0 65 e2 a8 3e 65 cb c7 bd 9a 7e c2 3e a4 8a 35 be
       0.32985225 -0.09755591 0.37987214 -0.17728668
000300 81 29 c7 be da 15 23 bf 47 f2 f3 be 8e a1 8c 3e
       -0.38898852 -0.6370522 -0.4764578 0.27467006
000310 33 33 86 3e e8 55 1d 3e fa ce a5 3d 93 88 7e be
       0.26210937 0.15364802 0.08096118 -0.24856786
000320 03 7e 88 3d 02 99 1a bd 23 bd 87 3e 54 f7 27 3e
       0.0666466 -0.037743576 0.26511487 0.16402942
000330 08 ce e8 bd fe 52 d6 3e 45 ff bc bd 5c 44 24 bd
       -0.11367422 0.41860193 -0.09228376 -0.040104255
000340 79 dd 97 bd 3a 50 72 3e 7d 24 c8 3d cb 4b 88 bd
       -0.074152894 0.23663417 0.097725846 -0.06655081
000350 2b 96 7f be b0 83 d9 bc 8f 27 ae 3d 4b d0 31 3e
       -0.24959628 -0.026552051 0.08503639 0.17364614
000360 17 52 e8 bd 7e a1 97 bd fe 08 a1 3c a8 c0 9b bd
       -0.113437824 -0.07403849 0.019657608 -0.07605106
000370 38 45 0a 3d 39 65 5c 3d 71 7e 8e bd 10 b7 d5 3e
       0.03375742 0.05380747 -0.069577105 0.41741228
000380 7d c3 62 3e 5f 2f 5c 3e 40 f6 42 3e 7e ae 26 3e
       0.22144885 0.21502446 0.1903925 0.16277501
000390 2f 6e aa 3c ed e7 d8 3e c0 f4 40 3d 6a 1a e9 3d
       0.020804493 0.42364445 0.04710841 0.11381991
0003a0 29 84 ad 3e 73 9a ba bd 24 8e ce 3d 59 b7 ee 3d
       0.33889893 -0.0911149 0.10085705 0.116560645
0003b0 b1 81 8e 3d 2d c2 e8 bd 09 8c 89 3d 9b 4a 88 3d
       0.069583304 -0.11365161 0.06716163 0.06654855
0003c0 5d fd 8d 3d 8e f7 08 be e8 03 96 3d 2b ee 71 be
       0.06933091 -0.13375685 0.07324964 -0.2362601
0003d0 b4 bd d6 bd 2f 5e 9a bc f0 f5 a5 3e bb 23 0d 3c
       -0.10485402 -0.018843738 0.32414198 0.008614476
0003e0 b6 8d 89 3e 2d 6f 5e be 58 e8 ac be 13 aa 92 3e
       0.2686593 -0.21722098 -0.33771014 0.2864538
0003f0 ab 46 20 3c 5c 44 42 3d e8 09 89 3d e9 a9 81 bd
       0.009782474 0.047428474 0.066913426 -0.06331236

encoder.0.bias f4 [64]
000000 2f 0b 4d 3e ff 81 59 3e ae 23 36 be ef 07 bc 3d
       0.20023797 0.21240996 -0.17787048 0.09181201
000010 dc 0c c6 3d 08 36 2c 3e a4 08 9c 3e 59 08 4d be
       0.096704215 0.16817486 0.30475342 -0.20022716
000020 5a 11 36 bd d9 1d ab 3d fb 7a 8b 3d 24 e1 0a 3d
       -0.04445014 0.08355302 0.06810566 0.033906117
000030 33 41 25 3c 26 2b 45 3e 98 f9 55 be 84 cd 9f 3b
       0.0100863455 0.19254741 -0.20895994 0.0048767943
000040 b1 21 8a 3c a4 f6 9c bd 3b 71 93 3e b1 1d 80 3e
       0.016861768 -0.076642305 0.28797325 0.25022653
000050 b0 d7 10 3e de d7 4b bd b0 7b 55 be 3b 2e 68 bd
       0.14144778 -0.049766414 -0.20847964 -0.056684714
000060 4a 07 47 be 62 6c a4 bd c8 90 57 3c b2 5d 73 3d
       -0.19436374 -0.08028485 0.013157077 0.059415527
000070 4f 48 89 bc c4 2c c5 bd 2d d8 40 bd 8f 72 9f 3d
       -0.016758112 -0.09627679 -0.04708116 0.07785522
000080 1e 59 c9 bc f2 33 9c bd 5d 54 99 bc fd 6b 90 3d
       -0.024578627 -0.07627095 -0.018716985 0.07051847
000090 21 d1 06 3e 3a 82 87 3d be b5 66 3e aa 41 10 3e
       0.13165714 0.066166356 0.22530267 0.14087549
0000a0 3f e1 fe 3c a8 3d b3 3c c3 31 fe bb 2a 03 c9 3d
       0.031113265 0.021879986 -0.007757397 0.098150566
0000b0 62 b5 9d 3d 2d a7 3c 3e b1 6b 03 3e 95 72 67 bb
       0.07700612 0.18423147 0.1283405 -0.00353161
0000c0 52 0a 64 be 2e ed 64 3e 98 f7 56 3d 6a ea 24 3e
       -0.22269562 0.22356102 0.052482218 0.16105047
0000d0 51 3e f6 3d 7c 66 10 be d3 98 5c 3c e8 df 26 be
       0.12023605 -0.14101595 0.0134641705 -0.16296351
0000e0 d2 1d c8 3d 29 84 37 3e 5c 87 99 3d ec c9 2c be
       0.09771313 0.17921509 0.07496521 -0.16873902
0000f0 6d 8f eb bd 48 5a 93 bd 06 e8 f6 3d a0 a0 bb bd
       -0.11501966 -0.07194954 0.12055974 -0.09161496

encoder.2.weight f4 [32, 64]
000000 5f 95 77 bb d6 3d fe 3d 0c 58 90 bd ee b5 f4 be
       -0.003777824 0.12414138 -0.070480436 -0.4779505
000010 3b e1 b9 3d f9 85 90 bd 89 c4 c3 bd 3e dd 99 3d
       0.090761624 -0.07056803 -0.095589705 0.07512902
000020 1c 16 60 3e f5 ef 4a 3d fc 9d c8 3c 3d 95 70 3e
       0.21883434 0.049545247 0.024489395 0.2349443
000030 7b fc 4f 3e 59 33 da 3d f8 a2 14 bd 09 dd 27 3e
       0.20311157 0.10654325 -0.03628823 0.16392912
000040 10 a6 ac bc 42 8f d3 bd ce 9f 81 be ce 01 1c be
       -0.021075279 -0.10330059 -0.25317234 -0.15235063
000050 42 9c d9 3d b9 ce 84 3e dd ae a7 bc ad bd 61 3d
       0.10625507 0.25938967 -0.020469123 0.05511253
000060 9e 66 af 3d 20 9d aa 3c 3a 38 31 3e ab 9c 23 38
       0.085644946 0.020826876 0.17306605 3.9008137e-05
000070 79 af 14 3e c6 34 1d 3d 68 14 49 3e 15 ea 29 3e
       0.14520063 0.038380407 0.1963669 0.16593201
000080 49 32 0f bf e8 c9 90 3c 8c c6 01 be 54 cf ec bc
       -0.55936104 0.017674401 -0.12673396 -0.028907456
000090 23 b6 25 3e 3a bb 84 be 45 60 16 3c 05 1f 41 3e
       0.16182761 -0.25924093 0.009178226 0.1885949
0000a0 e0 dd e1 3d ef 23 3c 3e 09 28 4a 3d ff 4a 23 3e
       0.110286474 0.18373083 0.049354587 0.15946577
0000b0 b5 f3 7e be 91 4c 2f be 73 31 a0 ba 27 87 14 3e
       -0.24897654 -0.17119052 -0.0012221768 0.14504682
0000c0 62 e6 cf 3d ac 8d 22 be 22 a2 d8 3d e7 53 92 bd
       0.10151364 -0.15874356 0.105777994 -0.07144909
0000d0 4a ca 2e bc 16 45 9e bd 66 a6 4c 3d ef ae 42 3d
       -0.010668347 -0.07728021 0.049963377 0.04753011
0000e0 d4 71 a1 bd 0e ab e2 3d 58 6a 86 bc f2 5b b5 bd
       -0.07883039 0.11067782 -0.01640813 -0.08855428
0000f0 98 e2 92 3d 0d 6f 17 3e 1e b1 e7 bd aa 4b 89 bc
       0.071721256 0.14788456 -0.11313079 -0.016759712
000100 11 0f 09 bc 63 cf f9 bc 22 c0 e6 bd d7 a6 b5 bd
       -0.0083654085 -0.030494398 -0.11267115 -0.08869713
000110 c6 cb 03 be a9 12 8f bd dc 69 73 bc d6 d8 ea 3d
       -0.12870702 -0.06985981 -0.014856782 0.114671394
000120 5b 96 e6 3d 06 2a 96 bd 16 c7 81 3c 94 0a d7 bb
       0.11259147 -0.07332234 0.015842002 -0.0065625403
000130 bb 77 f5 3c db e9 30 bd b0 ad c8 bd 04 c5 62 bd
       0.029964318 -0.043191772 -0.09798753 -0.05536367
000140 a9 f3 87 3c 6a eb c8 bd 14 a9 d7 bd 72 e1 17 bd
       0.016595678 -0.09810527 -0.10530296 -0.037080236
000150 43 55 2f bd 3c 21 0f 3d d4 7c 9c 3d 02 4f a7 3d
       -0.04280592 0.034943804 0.076409966 0.081693664
000160 e6 a0 a8 bd a0 4b 2d bd d8 5c 7d 3d 9d 2d f4 bd
       -0.08233814 -0.04230845 0.06185612 -0.119227625
000170 02 2e 98 3d 5d b1 59 bd 17 d3 ab 3d 3d f3 73 bd
       0.0743065 -0.053147662 0.083898716 -0.059558142
000180 de e2 c1 3d 54 b0 28 bd af 04 43 3d 0d c8 9b bd
       0.094670996 -0.041183785 0.04761189 -0.07606516
000190 fb 7d 5d bc 38 1a c7 bd 06 6c d5 bd 33 0a 03 3d
       -0.013518806 -0.09721798 -0.104209945 0.03199215
0001a0 0b ec 40 bd ca 42 03 bd bb 48 77 3d d6 12 e8 3a
       -0.047100108 -0.032046117 0.060372096 0.0017705809
0001b0 42 14 a9 3d 30 7a 6f bd c7 cb 1a 3d f3 7d 9d 3d
       0.08255817 -0.058466136 0.037791993 0.076900385
0001c0 04 cd 40 3d 44 ff 35 bd ec ca e2 bc df 16 04 be
       0.047070518 -0.044432893 -0.027684651 -0.1289935
0001d0 fd 8d 72 bd 0a 7f f5 bd 9a 4a 66 bc c9 24 d3 3d
       -0.05921744 -0.119871214 -0.014055872 0.103097506
0001e0 14 fc 11 bd c7 66 db 3d 20 05 b4 3d 40 85 c7 3d
       -0.03564079 0.107129626 0.0879004 0.09742212
0001f0 1a ea a2 bd c3 91 27 bd 6e 11 5f 3d 35 c3 7f bd
       -0.079548076 -0.040910494 0.05445998 -0.062442023
000200 cc d3 0b bc 83 ce 13 3d e1 b7 a1 3d af 8f c9 3c
       -0.008534383 0.036085617 0.078964 0.024604646
000210 17 a0 ad 3d 86 db 44 bd d1 72 9a bd cc 02 0d 3d
       0.084778 -0.048060916 -0.07541431 0.034426495
000220 d6 95 92 bd 5e b0 ae 3c 4b 1d a1 3d f7 25 09 3d
       -0.07157485 0.021324333 0.07866915 0.03348347
000230 ab bb af 3d 43 83 ee bd 90 b3 ac bd de b2 b3 3d
       0.08580717 -0.1164613 -0.08432686 0.087743506
000240 4e c1 4b 3d 22 b0 bb bd 77 b8 aa 3c 0b 10 d5 bd
       0.049744897 -0.09164454 0.020839913 -0.104034506
000250 fa 07 ad 3d 30 1c bb bd 40 36 4a 3d 7a 2c 1f be
       0.08448787 -0.09136236 0.049368143 -0.1554431
000260 32 c2 ae 3d 80 db 85 bd 19 67 76 3d 27 be ac bd
       0.085331336 -0.06536007 0.060156915 -0.08434706
000270 f9 b6 4b bd 9e 36 fd 3b 5d 87 45 3d f2 06 8c bd
       -0.049735043 0.007727458 0.048224796 -0.06837262
000280 a5 23 a4 bd 1f 81 93 3c 15 88 71 3d cc 5d 98 3d
       -0.08014611 0.018005906 0.05896767 0.07439765
000290 b0 24 c4 3b c3 0f 29 bc 7b ca e1 3c 2b 8e 0d bd
       0.005985819 -0.010318699 0.02756237 -0.03455941
0002a0 70 b5 e4 bd d9 6a 09 bc e1 71 aa 3d 9a 1e 3b bd
       -0.11167419 -0.008387291 0.08322502 -0.04568348
0002b0 9b 17 50 3d 74 9f da 3d 8a 84 f4 bd 75 58 b9 bc
       0.050803762 0.106749445 -0.11939342 -0.022625187
0002c0 d2 72 b3 3d bd 69 d7 ba 5a b6 29 bd 0c 4f 9e 3c
       0.087621346 -0.0016434711 -0.04143367 0.019324802
0002d0 78 e8 d9 bc a0 f8 18 bc 1e 31 6f bd 7f 79 5a 3b
       -0.026600108 -0.009336621 -0.05839645 0.0033336577
0002e0 00 a1 81 bc 0a f5 1e be 58 a4 e9 3c a6 84 d1 3d
       -0.015823841 -0.15523162 0.028520748 0.10230379
0002f0 80 a0 54 bc 7e 4a cb bd c0 1e f2 bd a3 8a 95 bc
       -0.012977719 -0.09926318 -0.11822271 -0.018254584
000300 f8 83 3a bd 52 e9 af bd c4 88 b0 bd e8 04 6b 3d
       -0.04553601 -0.08589424 -0.08619836 0.057377726
000310 ca 6a ac bd 68 6b 5d bd b8 97 92 bc 60 0d fc bc
       -0.08418806 -0.05405751 -0.01789461 -0.030768096
000320 84 4c 76 bd 00 0e 08 3c fc 36 6f 3d 92 fb f2 3d
       -0.060131565 0.008304119 0.058402047 0.118643895
000330 e8 d1 96 3c e0 5a df bd e0 d4 00 3d e4 d1 f5 bd
       0.018410638 -0.10906005 0.031453013 -0.12002924
000340 2c 41 31 bd fa 14 cc 3d 90 2c 91 bc 8a c4 cd bd
       -0.043275043 0.099649385 -0.017721444 -0.100472525
000350 68 e9 92 3d b8 d6 ca bd 0a bd bd bd 00 f1 13 3d
       0.07173425 -0.099042356 -0.09264572 0.036118507
000360 2c 97 f8 bd 42 f9 fe bd b0 4b b4 3d 66 08 d3 bd
       -0.12138209 -0.12449886 0.08803499 -0.10304336
000370 68 30 e6 bd f0 75 09 3c 00 35 5a 3b 10 70 df 3c
       -0.112397015 0.008389935 0.003329575 0.027275115
000380 40 cc bf bb 66 10 c3 bd 1c 43 aa bd 18 e3 32 bd
       -0.005853206 -0.09524612 -0.08313581 -0.043673605
000390 26 6b ce bd 76 87 9b bd 50 04 79 3c 70 29 6d bc
       -0.10079031 -0.075941965 0.015198782 -0.0144752115
0003a0 bc 63 98 bd a4 18 1d bd 72 d1 c2 bd 1c d6 fd bd
       -0.07440898 -0.038353577 -0.09512605 -0.12394354
0003b0 e4 f3 0c bd 30 9a 77 bd 76 2a fe 3d 08 d6 df 3c
       -0.03441228 -0.06044978 0.124104425 0.027323738
0003c0 56 1c b9 3d 84 bf 41 3d 54 a5 fb bd 2c a0 06 bd
       0.09038608 0.047301784 -0.12287393 -0.032867596
0003d0 1c 7d 4e bd 94 c6 b0 3d 60 53 c0 bd a2 d6 93 bd
       -0.050412282 0.08631626 -0.093909025 -0.07218672
0003e0 50 69 96 3c f0 11 9a bd 1a b0 f2 bd e0 a4 f4 bc
       0.018360764 -0.075229526 -0.11849995 -0.029863775
0003f0 bc 60 31 3d 80 39 cc bc 40 91 39 3c cc 89 00 bd
       0.043305144 -0.024929762 0.011326134 -0.031381413

encoder.2.bias f4 [32]
000000 ce 76 84 3d 47 a3 01 be 5b d5 b5 3c 78 56 06 3d
       0.06467973 -0.12659942 0.022196462 0.032797307
000010 91 cf 8b bd a2 9b e0 bd f8 3b 0a 3e 63 df b8 bd
       -0.068266995 -0.109671846 0.13499439 -0.09026983
000020 14 ac 19 3d 96 ff f3 3d 8d b5 f9 bc a7 6f 0d 3e
       0.037517622 0.119139835 -0.030482078 0.13812123
000030 cc dc fe 3d d6 2c 60 3d 0d 7b 9b 3d 07 77 ee 3d
       0.124444574 0.05473026 0.075918294 0.116437964
000040 38 12 f8 bd 45 aa f9 3d 83 5e 8b bd 2b ca 7d 3a
       -0.1211285 0.121906795 -0.06805136 0.00096813095
000050 62 50 a3 bd 23 c6 06 bd 02 2f 00 3e 20 85 79 bd
       -0.07974316 -0.0329038 0.12517932 -0.060917974
000060 dd be 5c 3e 73 b2 a0 3d 60 32 15 3e 82 cd d3 3c
       0.21557184 0.078465365 0.14569998 0.02585483
000070 5d cd 99 bd 5d 68 06 3c 80 8c ef bc 9f 17 0d 3d
       -0.07509873 0.008203593 -0.0292418 0.034446355

encoder.4.weight f4 [16, 32]
000000 fe 4c cc 3d 4b 03 a8 3c 05 ab f6 bd 99 29 32 be
       0.099756226 0.020509383 -0.12044338 -0.17398681
000010 55 a8 a8 bd 0b 2e 8c 3e 7e 7c 2c 3e 54 a3 1f 3e
       -0.08235232 0.27378878 0.16844365 0.15589648
000020 b6 77 88 3e 68 1e 7d 3e 68 aa 9b 3d f2 6b ba 3d
       0.26653832 0.2471863 0.07600862 0.0910262
000030 61 da 47 3e 81 bc e2 3d 98 ac 89 3e b3 3c 90 3e
       0.19516899 0.110711105 0.2688949 0.2817131
000040 34 c6 db bd ae 96 3b 3e 50 c8 2f be c0 68 68 3e
       -0.107311636 0.18319198 -0.17166257 0.22696209
000050 67 b5 03 3e 86 5d a9 bc 42 0c 83 be 00 c8 2c bb
       0.12862168 -0.020674478 -0.2559529 -0.0026364326
000060 0d 2e a9 3c e9 2f 65 be e5 5e 93 3e b6 92 ff 3d
       0.020651842 -0.22381558 0.28783336 0.12479155
000070 f2 53 e6 3d cb 30 04 3e 06 e6 54 3e 7c ab 12 bd
       0.1124648 0.12909238 0.20790872 -0.03580807
000080 7a b0 80 3e 87 00 8d 3d b5 ee 76 3c d0 4d 48 3c
       0.2513464 0.06884866 0.015071561 0.012225583
000090 fc f3 12 be 06 06 2e 3e 4a 68 f2 3c e0 f4 41 bd
       -0.14350885 0.16994485 0.029590745 -0.04735267
0000a0 c5 df a1 3d 5d 7e a2 3d 81 0e 09 3e 82 27 3e be
       0.07904009 0.07934258 0.13384439 -0.18569759
0000b0 f5 72 5c 3e 6e f5 a5 3d 50 4a 87 3e 22 3b 05 be
       0.21528228 0.081034526 0.26423883 -0.13010839
0000c0 65 e0 5f bd 30 3f 9a 3e 34 ad 85 3d 38 64 56 be
       -0.05465736 0.30126333 0.065271765 -0.20936668
0000d0 cb fd 3c 3e 8b ca e5 bd 51 aa a4 3d a4 f2 05 bd
       0.1845619 -0.11220273 0.08040298 -0.032702103
0000e0 d2 2b 9a bd 25 19 3b be 10 f0 ff 3c c1 49 43 3d
       -0.07527889 -0.1827131 0.0312424 0.04767776
0000f0 94 aa 31 3d ac 78 c3 3d ee b2 27 be 48 02 24 be
       0.043375567 0.09544501 -0.1637685 -0.16016495
000100 c8 c9 df 3d 9c 9e 94 bb 1f 0e 0a 3e eb e6 27 3e
       0.109271586 -0.0045355093 0.1348195 0.16396682
000110 8c 9e e7 bd 6f c9 4d bc f7 94 1e 3d 72 ef 38 be
       -0.11309537 -0.012560233 0.038716283 -0.18060091
000120 62 5e 22 be 3e cd 4e 3e e8 b8 b3 3c a6 92 96 3e
       -0.15856317 0.20195481 0.021938756 0.2940876
000130 d5 01 15 3e cc 74 d7 bc ac 8a 7b bc 13 d8 82 bc
       0.1455148 -0.02630081 -0.015352886 -0.015972173
000140 f7 30 a6 bd e1 ea 32 3d 85 1c d6 bc 9e bc b0 3e
       -0.08114808 0.04368103 -0.026136646 0.34518903
000150 09 26 4a 3e d6 95 66 3d 82 e4 7b 3e 6f e8 2f 3e
       0.19741072 0.05629524 0.24598888 0.1717851
000160 d9 43 3e 3e be 86 d2 3e 54 b4 58 bd 9f a3 00 bd
       0.1858057 0.41118425 -0.05290635 -0.03140604
000170 8b 9d 1d 3e 23 50 a0 bd e1 1f 96 be 4f 72 a9 3d
       0.15392129 -0.07827785 -0.29321197 0.08273756
000180 70 ba dd bc f0 fc 4f bd 21 1c 34 be cb 9f 30 be
       -0.02706644 -0.05077833 -0.17588855 -0.17248456
000190 ec 84 87 bd 6a 60 f4 bc 3d 23 15 3e 4f 0b f3 bc
       -0.0661715 -0.02983113 0.14564224 -0.029668478
0001a0 b8 38 b1 bd 7c fe 04 be 7b 14 01 3d c8 82 17 be
       -0.08653396 -0.12987703 0.031513672 -0.14795983
0001b0 c7 6c a9 3b 55 56 0d be ab 26 83 bd 30 cf 07 3e
       0.005170438 -0.13802464 -0.0640386 0.1326263
0001c0 42 61 20 be ca 2c f9 bc 12 34 6e bd c7 09 9e 3d
       -0.15662101 -0.030416865 -0.058155127 0.07716709
0001d0 7b 70 9d 3d 3a 7d d3 3d 1c 08 75 bd c1 64 01 3e
       0.076874696 0.103266194 -0.059822187 0.12636091
0001e0 41 88 0a be c0 ff 13 be d4 f7 dc 3d 23 f5 da bd
       -0.13528539 -0.1445303 0.10789457 -0.10691287
0001f0 a1 2b 69 3d 66 c1 63 bd 09 44 27 be 18 a4 5b bd
       0.056926373 -0.05560436 -0.16334547 -0.05362329
000200 3e e2 75 3d 6e a7 d1 bd 1d 3e dc 3c 7e 29 cd 3d
       0.060030214 -0.10237013 0.026885087 0.1001768
000210 59 fa c7 bc 5b 7e e0 bd e5 9b 97 3d 07 57 28 be
       -0.024411367 -0.109616004 0.074027814 -0.16439448
000220 76 ec d6 3d b8 f3 0b be d5 17 bd 3c 36 0e 80 3e
       0.1049432 -0.1366719 0.023082653 0.25010842
000230 cf 1f d7 3d 3e 19 d2 3d bd 5b 15 be 7b e1 90 3e
       0.10504114 0.10258721 -0.14585777 0.28297028
000240 07 e0 d2 3d 22 5c ba bd ed d4 c1 bc 07 4a b1 3e
       0.10296636 -0.09099604 -0.023661101 0.3462679
000250 1b bb 3d ba e7 4d 0a 3e ef e6 51 3e 67 8a 21 3e
       -0.0007237659 0.1350628 0.2049825 0.15775453
000260 93 fc a1 3e f2 3b b7 3d ba 6f 8b 3e 8d a3 f7 bd
       0.3163801 0.089469805 0.27233678 -0.12091742
000270 7b d5 87 bd ca 6c ba bc ca 06 05 be a1 cb 10 3e
       -0.06632515 -0.022756953 -0.12990871 0.14140178
000280 e9 d4 9a 3c 33 35 20 be 0c e3 06 be f0 7b c4 bc
       0.018900352 -0.15645294 -0.13172549 -0.02398488
000290 4f 8d 29 be 75 78 1b 3e 76 a9 66 3e 42 77 15 bc
       -0.16557811 0.1518267 0.22525582 -0.009122672
0002a0 ce 40 66 3d af 1d 64 3e 10 60 aa 3d a1 c6 81 3d
       0.056214146 0.22276948 0.08319104 0.063367136
0002b0 83 49 88 3e cb ed 4a 3d 26 1f 72 3e 0b a5 27 3c
       0.26618585 0.049543183 0.23644695 0.01023222
0002c0 30 f9 13 be 60 ea bd 3c da 96 ee 3d 54 78 41 3e
       -0.14450526 0.023183048 0.116498664 0.18893558
0002d0 36 9f 62 3e c6 3b 13 be 32 df a2 bd 5a fc 5e bd
       0.22131047 -0.1437827 -0.079527274 -0.05443988
0002e0 fd 29 6d be 3f f9 19 be 96 b5 88 3c 55 1f 2d 3e
       -0.23160549 -0.15036486 0.01668815 0.16906483
0002f0 21 c0 9b 3e d9 74 e3 bd d2 6c d1 bc 56 ec 1a be
       0.3042002 -0.11106271 -0.025564585 -0.15129218
000300 9d fb 3a 3e d7 ae ef bd 81 b4 31 3e ef 03 bf bd
       0.18260045 -0.1170327 0.17354013 -0.09326922
000310 30 8e 4d bc 05 44 25 3d ac 05 5e 3e e4 3d 5a 3d
       -0.012546107 0.04034807 0.21681851 0.05328168
000320 77 ef 8c 3d b4 be 80 3e 4b e1 2d 3e 3f b5 08 be
       0.06881612 0.25145495 0.16980474 -0.1335039
000330 1a c1 0f 3d 88 0a 34 3e fc e6 86 bd 2f 08 ee bd
       0.035096265 0.17582142 -0.065870255 -0.11622655
000340 9c f5 0c be 00 55 56 bc b8 99 b0 3c 93 4a 1b be
       -0.13765568 -0.013081789 0.021557674 -0.15165167
000350 20 14 94 3e 56 ee 06 be ab b6 f0 3d 82 ad 06 be
       0.28921604 -0.13176855 0.11753591 -0.13152125
000360 32 9e be bd a3 93 48 be 90 2a 88 3d 49 3f 0c 3d
       -0.09307517 -0.19587569 0.06648743 0.03424004
000370 ba e6 b5 3d 4e 17 70 bd 76 17 2e 3b e2 50 ff 3d
       0.08881898 -0.058615975 0.0026564277 0.12466599
000380 c9 59 21 be 4b ae 13 3e 28 26 48 bd 1e 60 ed bd
       -0.15756907 0.14421956 -0.048864514 -0.115905985
000390 fe a5 0f be 37 01 0a be 8c d1 a0 bd 80 ca 0b 3c
       -0.14028165 -0.13477026 -0.07852468 0.0085321665
0003a0 80 64 7d bb 27 23 85 bd 3c 74 52 bd 77 1d d7 bd
       -0.003866464 -0.065008454 -0.05138038 -0.10503667
0003b0 4a e4 a3 bd 5a a2 03 be 4d af 31 3e 22 8a fb 3d
       -0.08002527 -0.12854901 0.17352028 0.12282206
0003c0 83 b3 04 3e 8a 94 ec 3d 69 c9 1e 3e 5b 59 1e 3e
       0.12959103 0.11551769 0.1550652 0.15463774
0003d0 0f 57 31 3e 9c 73 46 bd c5 67 a2 bd c0 32 96 3b
       0.17318366 -0.048450097 -0.07929949 0.0045836866
0003e0 73 57 b9 bd 55 55 d6 bd 80 81 14 bb 4c d0 62 bd
       -0.09049883 -0.104654945 -0.0022660196 -0.05537443
0003f0 47 fc 29 be 00 63 d0 ba fa a1 09 be 40 de d4 3c
       -0.16600142 -0.0015898645 -0.13440695 0.025984883

encoder.4.bias f4 [16]
000000 c1 b7 1f be 69 1d 39 3e 68 a0 62 3d 70 1a 98 bd
       -0.1559744 0.18077625 0.055328757 -0.074269176
000010 49 45 2a 3e dd 5c a5 3d c7 6b 23 3d b8 23 1d be
       0.16627993 0.08074353 0.039897706 -0.15345657
000020 b4 9d 11 3e c8 4a 1c 3e 97 bb a0 3e 7c d7 15 be
       0.14220315 0.15262902 0.3139312 -0.14632982
000030 72 ea 3a 3d d7 24 e7 3d 11 e9 3d 3c 80 d5 3c be
       0.04563374 0.112863235 0.011591212 -0.18440819

encoder.6.weight f4 [8, 16]
000000 f7 11 57 be 87 fb d2 bd a6 51 b8 3e 31 89 36 3e
       -0.21002947 -0.10301881 0.35999793 0.17825772
000010 60 dd a3 3e 0d 18 32 be c0 1e 69 bd 48 12 9c bd
       0.32004833 -0.17391987 -0.05691409 -0.07620674
000020 ee 46 58 3e b9 bc 8f 3e a7 1c 92 3d a6 64 1e be
       0.21120808 0.2807367 0.07134371 -0.15468082
000030 c2 ea 06 be 03 6c 8d be 91 b2 6d be 35 04 43 be
       -0.1317549 -0.2762147 -0.23212649 -0.19044574
000040 49 78 44 be 98 be 01 bd ec 93 5a 3d 4d ee 55 3e
       -0.1918651 -0.031675905 0.053363726 0.20891686
000050 5f ae b2 bd 10 f2 3f 3e b8 d3 03 be f8 0d 32 be
       -0.08724665 0.18744683 -0.12873733 -0.17388141
000060 bc cc ba 3d 33 5e fd 3d 65 b9 e8 bb b4 95 20 be
       0.09121081 0.12371483 -0.007102179 -0.15682107
000070 1e 73 2e be 99 57 3a 3e 15 5e 5a be c7 23 c6 3e
       -0.17036101 0.18197478 -0.21324952 0.3869917
000080 23 ee 8e be 9b 79 d6 3c 7c 78 33 be 1a b1 13 3e
       -0.2791606 0.026181033 -0.1752643 0.14423028
000090 c6 e8 c4 bd 47 3b 8b be e7 54 47 bd f8 92 d5 bd
       -0.096147105 -0.27193663 -0.048664954 -0.10428423
0000a0 0b 86 21 be 65 1a ab bd 06 c9 61 3e 5e 2e 87 be
       -0.1577379 -0.08354644 0.2204934 -0.26402563
0000b0 33 cd a9 be 5a 72 e9 3c 65 9d 7d be 38 46 a6 be
       -0.33164367 0.02849691 -0.24767072 -0.32475448
0000c0 95 58 38 be d1 6e 18 bd e6 a2 1d 3e 6f 6d e1 bd
       -0.18002541 -0.037215058 0.15394172 -0.11007201
0000d0 0b f3 95 3e d5 82 a4 be f9 16 99 bd 30 96 9f 3d
       0.2928699 -0.32131067 -0.07475085 0.07792318
0000e0 fe 46 64 3e 0c 97 8d 3e 36 7b c9 3d 35 37 30 be
       0.22292706 0.27654302 0.09837954 -0.1720856
0000f0 72 24 94 be 71 75 b1 3d 61 0d 2c be 63 b9 31 3e
       -0.28934056 0.08664978 -0.16801979 0.17355876
000100 6b c0 e7 bb bf 70 09 bd e4 67 da be 65 b2 d9 3d
       -0.0070724986 -0.03355479 -0.42657387 0.10629729
000110 74 0a 8d bd d9 76 e2 39 1c 1c c4 bd 88 d0 6d 3e
       -0.068867594 0.00043194628 -0.09575674 0.2322408
000120 11 b7 f6 bd 59 cb 6c be e6 9d 87 3e 44 57 ee 3d
       -0.12046636 -0.23124446 0.26487654 0.11637738
000130 c6 38 68 be f1 a9 2f be dc 77 2c 3d ed a1 f7 bd
       -0.22677907 -0.17154671 0.042106494 -0.12091432
000140 09 ce 7f be f5 2e 8b be 56 56 3f be 96 d6 41 be
       -0.2498094 -0.27184263 -0.18685278 -0.18929514
000150 82 01 c9 bd 70 79 4d be be fc ad be e0 e1 88 3c
       -0.09814741 -0.20065856 -0.3398189 0.016709268
000160 d3 9a 07 3e 0a 08 b3 3e 5d a3 4f 3b e3 90 54 be
       0.13242655 0.3496707 0.0031683065 -0.20758395
000170 3e a4 43 be 31 5f 8d be 78 ac 33 3d 8d 0b 5d 3e
       -0.19105622 -0.27611688 0.04386565 0.21586438
000180 cb 74 56 be 4a c4 4c 3e b9 99 08 bd 88 ce 46 be
       -0.2094299 0.19996753 -0.033349726 -0.19414723
000190 d5 f3 f3 be 07 f6 9a 3d d3 6e 7d 3e 50 10 f5 3c
       -0.47646967 0.07566457 0.24749307 0.029915005
0001a0 4e 8d e8 be 87 f3 6b be e2 f2 a0 3d d0 27 b0 bd
       -0.45420307 -0.23042117 0.07858826 -0.08601344
0001b0 61 47 61 3e 08 70 47 be d5 61 9c bc 85 e3 b4 bd
       0.21999885 -0.1947633 -0.019089619 -0.088324584
0001c0 b6 e2 34 3e b6 dd 32 3e 04 1d 96 3e 3f fe 57 be
       0.17664608 0.17467389 0.29319012 -0.21093081
0001d0 a8 66 ef 3d f3 e8 3d 3e 2e 3c 1e bd d0 c1 eb bc
       0.11689502 0.18545894 -0.03863161 -0.02877894
0001e0 22 e4 99 bc 08 66 c4 3e b6 3f 8d be 3f 04 14 3e
       -0.01878554 0.38359094 -0.2758767 0.14454745
0001f0 79 9d b1 bc 43 4f 93 3e fe 53 e9 bd 2b 6c ab 3d
       -0.021681534 0.2877141 -0.11392973 0.08370241

encoder.6.bias f4 [8]
000000 bd 86 33 be 3b 18 93 3e 30 77 a1 3d dc 1e 80 be
       -0.17531867 0.28729424 0.07884061 -0.25023544
000010 85 e7 07 be c3 59 c5 3c 35 f4 15 be 55 00 53 3e
       -0.13271911 0.024090653 -0.14643939 0.20605595

decoder.0.weight f4 [16, 8]
000000 8c 0c 10 bc eb 33 25 be 63 97 71 be 47 e1 5f be
       -0.008792054 -0.16133086 -0.23592906 -0.2186328
000010 4c 03 3c 3e 8c 0b bd 3d 34 62 95 be d7 99 38 be
       0.18360633 0.09230718 -0.29176486 -0.18027435
000020 4f 78 49 3e 11 7e c3 bd d0 6c bc bd 89 99 ad 3e
       0.196748 -0.0954553 -0.09200442 0.339062
000030 35 6d fa 3d 56 b8 c8 bd 2c a4 30 3e 8c 56 59 bd
       0.12227861 -0.09800784 0.17250127 -0.053061053
000040 98 c4 9e 3e b3 2d ce 3e 88 a7 4d bd 51 4c 2f bd
       0.31009364 0.4026924 -0.0502086 -0.04279739
000050 62 24 6d be 92 9e e7 bd a5 73 10 be 86 02 f3 3d
       -0.2315841 -0.11309542 -0.14106615 0.11865716
000060 9f 09 24 3e 59 33 b6 3e 0d 0a 40 be 09 6a c0 be
       0.16019295 0.3558605 -0.18753834 -0.37580898
000070 3f 3c b7 be cc 16 52 be 3e 91 ed bb 7d d5 dd bc
       -0.35788152 -0.20516509 -0.0072499802 -0.027079338
000080 d2 40 cb 3d 58 10 6e be 5a ea ae 3e 9c 06 62 bd
       0.09924473 -0.23248422 0.3416317 -0.055182084
000090 29 a9 b2 3e 45 79 97 be 60 c5 90 3e 27 ed 23 3e
       0.34894684 -0.2958471 0.28275585 0.16008435
0000a0 28 4f 95 3e 86 42 39 3e c0 b5 30 3d 40 8c 0c be
       0.29161954 0.18091783 0.04314208 -0.13725376
0000b0 b8 0a fb 3d 05 97 31 be d3 7d f3 bc 7a ae 8a 3e
       0.12257904 -0.17342766 -0.029723084 0.2708624
0000c0 de f6 c0 be ba 76 c2 be ef 7d f6 bd 09 07 8e be
       -0.37688345 -0.37981206 -0.12035739 -0.27739742
0000d0 71 ef 4d bd 2f a7 f9 be b3 cf ac 3e 20 82 01 3e
       -0.050277177 -0.48760363 0.33752212 0.12647295
0000e0 de be f9 3d e3 87 0e 3e ba 12 8b be fa c5 77 3e
       0.12194608 0.13919024 -0.27162725 0.24196616
0000f0 b6 03 1b be 22 a8 67 3e d3 eb 53 3d 65 b1 c0 3e
       -0.15138134 0.22622731 0.05173857 0.3763534
000100 96 3e d0 be 39 07 a9 bd 49 64 e5 be b7 f0 bc be
       -0.4067275 -0.08253331 -0.44803074 -0.369024
000110 0a c3 6a bd b2 7a 78 be ee 98 6c be a6 c4 a9 3e
       -0.05731491 -0.24265555 -0.23105213 0.33157843
000120 58 29 a1 3d 38 91 db 3d ca 2a 2c 3e 18 c0 ec 3d
       0.07869214 0.10721058 0.16813198 0.115600765
000130 18 4b 6d bd 22 f0 7d 3e bb 61 85 3e 75 48 8e be
       -0.057932943 0.24798635 0.26051125 -0.27789655
000140 e6 d1 14 be e7 66 8d 3d bd e4 21 be c2 1f a1 bc
       -0.14533195 0.06904393 -0.15809913 -0.019668464
000150 17 48 9b 3d fc 80 34 bd 87 c5 e0 3e 1c 80 12 be
       0.075821094 -0.04406832 0.439007 -0.14306682
000160 cc c5 d3 3e fa 28 94 3d 6a 79 a9 bc 19 ed b1 3d
       0.41361845 0.07234378 -0.020687778 0.08687801
000170 14 59 a6 be 63 c5 5e bd 1c d1 04 bf c0 7f 5e 3d
       -0.32489836 -0.05438746 -0.51881576 0.05432105
000180 92 11 06 3e d2 72 78 3e a9 3e 8d be 00 b1 be bd
       0.1309264 0.2426255 -0.27586868 -0.09311104
000190 85 ea 88 3e e0 8a 5d bc 20 34 83 3c 3a 5a 23 be
       0.26741424 -0.01352188 0.016016066 -0.15952387
0001a0 6e 33 00 3f b2 69 06 be af e8 71 3e 08 9b b6 3d
       0.50078475 -0.13126257 0.23623918 0.089162886
0001b0 0a 36 2a bd 77 f5 4e bd 5d a9 2a be c3 b6 be 3e
       -0.041555442 -0.050527062 -0.1666617 0.3724881
0001c0 d2 93 42 b9 6e 86 3a 3e 07 5c 0f be de 61 c9 bd
       -0.00018556349 0.18215343 -0.1399995 -0.0983312
0001d0 8a 58 aa be b7 6b 37 bd b4 ba 3a be 1d d4 93 bb
       -0.33270675 -0.04478046 -0.18235284 -0.00451137
0001e0 fd 3d 95 3e a5 b1 23 bc ba f9 19 bd ba 3a 86 3e
       0.29148856 -0.009991084 -0.037591673 0.2621668
0001f0 1c c7 0a bf b0 74 06 3e 42 8c ce be f5 33 78 3d
       -0.54210067 0.1313045 -0.40341383 0.060596425

decoder.0.bias f4 [16]
000000 74 ee 1c 3b 58 0e 95 3e 32 51 6a 3e 2a 9c b8 3e
       0.002394584 0.29112506 0.22882536 0.36056644
000010 6e df 34 be c5 e1 05 be 27 aa 5d 3e 39 ea ac 3e
       -0.17663357 -0.13074405 0.21646939 0.33772448
000020 60 78 53 be 50 df d1 3c 80 a4 5d 3e 30 65 c0 bd
       -0.20651388 0.025619179 0.21644783 -0.093943
000030 92 5b a4 be fe d4 00 3e 78 bd a4 be 6b 76 5a 3d
       -0.32101113 0.1258125 -0.32175803 0.05333559

decoder.2.weight f4 [32, 16]
000000 fd 54 ee bd 77 f1 db bb 54 71 25 be 50 cf e8 3d
       -0.11637304 -0.0067121345 -0.16156512 0.11367667
000010 89 d1 57 3e 1f a2 3d be 4c 4a 40 3e 63 ed bc bd
       0.21076025 -0.18518876 0.18778342 -0.092249654
000020 36 e0 a4 be 04 cf 82 3d 95 19 4f bd 37 b2 bc 3d
       -0.3220231 0.06387141 -0.050561506 0.09213679
000030 78 10 82 3d bb 70 60 3e 55 f0 85 3d c6 65 3f 3e
       0.063507974 0.21918003 0.0653998 0.18691167
000040 82 08 87 3d 1a 59 b3 bd 5d 51 3c 3e 1b 81 0d 3e
       0.065934196 -0.08757229 0.18390413 0.13818781
000050 28 6e a4 bd 4d 1a 2f 3e 7f bc 43 3e 10 12 09 3e
       -0.08028823 0.17099877 0.19114874 0.13385797
000060 14 56 76 3e 7c 69 83 bd 61 ea 1a bd 00 0f 36 3c
       0.24056274 -0.06416604 -0.037821177 0.011111975
000070 50 1b d9 bc e1 d6 91 be fc 4b 19 3e 6c 67 85 be
       -0.026502281 -0.28484252 0.14970392 -0.26055467
000080 a3 8b 18 be bd a3 64 3d cb a4 36 3e ba 7a 19 be
       -0.14897017 0.055820215 0.17836301 -0.14988223
000090 fd 0a 4e be 86 4c 26 3d d6 21 59 3e ca 46 52 3e
       -0.20121379 0.040600322 0.21204314 0.20534816
0000a0 a7 88 85 bb 2c ba c8 3d 22 c3 8a be 8f c3 3e 3e
       -0.004075128 0.098011345 -0.27102 0.18629287
0000b0 90 6e 85 3d 3b 73 9a 3e e7 1a d9 bd 51 0a 3a 3e
       0.06515229 0.3016604 -0.10600834 0.18167998
0000c0 e0 5e 76 be 29 88 1a be 34 92 43 be 7c 84 8b be
       -0.2405963 -0.15091003 -0.19098741 -0.27249515
0000d0 82 b8 17 be 1c 15 76 3d 19 80 d1 bd d3 c3 d3 bd
       -0.14816478 0.060078725 -0.10229511 -0.10340085
0000e0 bb 7c 3d 3e d0 4d 1f 3e 14 0c e8 bd f9 57 f8 bc
       0.18504612 0.15557027 -0.11330429 -0.030315386
0000f0 50 b9 96 3c de 22 e8 3d cf b4 45 3c ce 42 92 3d
       0.01839891 0.113347754 0.012067034 0.07141648
000100 09 d5 0d be 40 22 52 be 0f 82 d2 3d ea b9 1a 3c
       -0.13850798 -0.20520878 0.10278713 0.009443739
000110 1d fd 5d be 6e 37 7a 3e 60 39 1f bd 00 3e d8 3c
       -0.21678586 0.24435207 -0.038873076 0.026396751
000120 d5 50 40 3e b0 e1 d2 3c 81 b8 0c 3d e0 3e 1c be
       0.18780835 0.025742382 0.034355644 -0.1525836
000130 e8 d7 72 3e 52 75 e2 be 89 43 8f 3e 56 96 6d bc
       0.23715174 -0.44230133 0.27981213 -0.014501175
000140 25 87 15 be c7 94 34 be 8c 4f 9c be 56 f1 e8 bc
       -0.14602335 -0.17634879 -0.3052944 -0.02843539
000150 08 fd 06 bd 92 d8 5d 3c cb 60 88 3d dc 4b 29 bd
       -0.032956153 0.013540404 0.06659087 -0.04133211
000160 10 d6 46 bd 7a 43 17 be 48 d6 30 bd 01 ad b2 bd
       -0.04854399 -0.14771834 -0.043173105 -0.08724404
000170 02 62 4f 3e f8 25 d2 bd eb 98 a6 3d c8 32 8b 3d
       0.20252231 -0.10261148 0.081346355 0.06796795
000180 6b d4 e9 bc 06 25 4c be d8 7e 90 bd c4 d7 33 bd
       -0.028543672 -0.19935998 -0.070554435 -0.043906942
000190 4b b9 70 be 7a 85 9d 3e da 76 b3 3d 35 4e aa 3e
       -0.23508184 0.30765897 0.087629035 0.33262792
0001a0 9e b5 81 3e e2 01 25 3e af 6c 08 be 23 95 d8 3d
       0.25333875 0.16114 -0.1332271 0.105753206
0001b0 e0 f5 1b bc 59 99 2a be 85 1e 8f 3e 8d 78 51 bc
       -0.00951907 -0.1666006 0.27952972 -0.012785089
0001c0 50 b6 f9 bc c8 11 ac bd 4a 0e 78 be c2 0f 13 be
       -0.030482441 -0.08401829 -0.24224201 -0.1436148
0001d0 a2 7d 58 be 00 f0 05 be 30 21 5f 3d 00 0b bb 3a
       -0.21141675 -0.13079834 0.05447501 0.0014270246
0001e0 52 48 0c be 60 c3 e4 bc 16 a7 5a be ae c3 00 be
       -0.13699463 -0.027925193 -0.213528 -0.12574646
0001f0 08 3f 17 be b6 92 71 be 30 b2 c6 bc 78 46 6b be
       -0.14770138 -0.23591122 -0.024254888 -0.229761
000200 4a 18 c0 3c 6c c9 04 be 4e 6e 1a 3e e7 4b e5 3d
       0.023449082 -0.12967461 0.1508114 0.11196118
000210 a4 38 81 bd c6 64 9d 3e 08 5b 62 be f8 d9 31 bc
       -0.063096315 0.30740947 -0.22105038 -0.01085519
000220 b5 0f 64 3e 50 2d d4 3c 89 7a 81 be ff bd a6 3d
       0.22271617 0.025900513 -0.252888 0.08141708
000230 5e 75 0c 3e d3 da 87 3e ff 9e 79 3d ad cc 30 3e
       0.13716647 0.26534137 0.060942646 0.17265578
000240 96 a8 c5 3d 99 79 5b be ce 46 7f be 9e 26 80 3e
       0.09651296 -0.21433105 -0.24929354 0.25029463
000250 fe f5 f6 3b 21 bf cf bd 34 9b 6c bd 7c 8a 90 bd
       0.007536649 -0.10143877 -0.0577652 -0.07057664
000260 09 af bc 3b 10 c6 b1 3c 03 d7 85 3e 9a e6 6b 3e
       0.0057581705 0.021700889 0.26140603 0.23037186
000270 ca e8 60 be 1d 22 25 3a 95 a9 71 bd 8d b7 67 bc
       -0.21963802 0.0006299334 -0.058999617 -0.014142883
000280 27 fc b4 3b 11 9c 5e bd 98 99 f5 3d 3d 6b a6 3e
       0.005523223 -0.054348055 0.11992186 0.3250369
000290 d8 a5 2d 3e fd 06 f2 bd da c8 85 be b4 ca ac 3e
       0.16957796 -0.11817739 -0.261298 0.337484
0002a0 4b 7a fa bd b0 e7 d0 bc 17 3b f5 3d 67 02 9b 3e
       -0.12230357 -0.025501102 0.11974161 0.3027527
0002b0 3c 35 b5 3d 30 30 60 3e 48 55 93 3d 12 6b bc 3e
       0.08848044 0.21893382 0.071940005 0.36800438
0002c0 88 a8 25 3e 58 3f 5b 3e bc 35 a8 3d ba cc 61 be
       0.16177571 0.21410882 0.08213374 -0.22050753
0002d0 fc 51 e0 bd 56 b4 1c be 00 41 6c bd e0 ef db bd
       -0.10953137 -0.15303168 -0.057679176 -0.10739112
0002e0 62 9d 3f be 14 3d 56 3e be d7 6e be 58 76 11 3d
       -0.1871238 0.20921737 -0.23324487 0.035513252
0002f0 f0 a0 f5 3c 68 83 17 bd d8 66 2d 3d 7c eb fd 3d
       0.029983968 -0.036990553 0.042334408 0.12398431
000300 48 43 de bd bf 26 02 3e b5 df cd bd bc a4 98 3d
       -0.10852677 0.12710093 -0.10052434 0.074532956
000310 95 93 a2 bd 07 b1 17 3d 8e 5a 32 be 77 c2 cc bd
       -0.07938305 0.03703406 -0.17417356 -0.09998029
000320 d1 af 39 3e c4 bd 8d 3d 17 07 06 bc 3d 1f 81 be
       0.18133475 0.069209605 -0.008180401 -0.25219145
000330 40 c2 3e 3c f1 1b 63 be d4 91 9c 3e b9 33 2c 3e
       0.0116429925 -0.22178628 0.30580008 0.16816606
000340 e4 b2 d8 bd f7 00 22 3e 83 c2 42 be 30 0b 60 be
       -0.10580996 0.1582068 -0.19019513 -0.21879268
000350 b5 15 27 3e be 12 0c 3e af 51 51 3e bb f9 59 be
       0.16316874 0.13679025 0.20441316 -0.21286671
000360 ff f3 54 3e 00 32 e6 bc 30 16 93 bd 18 ff bf bd
       0.20796202 -0.028100014 -0.07181966 -0.09374827
000370 94 1a 0c be 59 40 6e 3e 5c fc 7e bd b8 e6 3e bd
       -0.13682014 0.23266734 -0.062252387 -0.04660675
000380 4c 52 b1 bd f8 6d b0 3d 58 b2 b7 bd d0 4c 47 be
       -0.08658275 0.08614725 -0.08969563 -0.19462895
000390 3e d7 01 be fc a5 10 3e e8 60 63 3d 38 23 22 bd
       -0.12679765 0.14125818 0.05551234 -0.03958437
0003a0 30 99 ab bc 1e c0 57 3e 20 40 53 bd 00 df 6b 3b
       -0.020947069 0.2106938 -0.051574826 0.0035991073
0003b0 d4 9b 2d 3e e8 1b 50 3d 8c 99 5b be e6 ac 6b be
       0.16953975 0.050807863 -0.21445292 -0.23015174
0003c0 37 ba 58 be c3 f7 9b bd bb 33 9c 3d 25 69 a3 3e
       -0.21164785 -0.07615616 0.07627054 0.31916156
0003d0 f2 4e 2e 3e fd 12 93 bd 4e 4d 3a 3d 0e aa 9c 3e
       0.17022303 -0.07181356 0.04548388 0.3059849
0003e0 fe 7d 6c 3c b2 ad 20 3e 11 d9 d7 bc 89 4f a3 be
       0.014434336 0.1569126 -0.026348623 -0.31896618
0003f0 00 90 81 bb 8c be a7 bc 53 07 4f be b3 ab 9b be
       -0.0039539337 -0.020476602 -0.20217638 -0.30404434

decoder.2.bias f4 [32]
000000 19 28 5e be c9 70 0b 3e d5 30 9e be e2 f1 01 3d
       -0.21694984 0.13617243 -0.3089663 0.031724818
000010 5d e1 b0 bd 71 d9 30 bd 8e 5b f2 bd 28 77 7d bd
       -0.08636735 -0.04317612 -0.11833869 -0.061881214
000020 f9 cf 7e be 63 c8 23 3e 4d fc 19 3e 5c 80 73 be
       -0.24884023 0.1599441 0.15037651 -0.23779434
000030 f2 41 a3 be e2 e1 50 be 1c 12 c7 bd 1e 2e ba 3e
       -0.3188625 -0.20398667 -0.09720251 0.3636331
000040 9b ab b8 be 3c 81 da bd 30 c0 f1 bd b6 d5 a3 be
       -0.36068425 -0.10669181 -0.11804235 -0.31998986
000050 97 7c 1f 3e 0a 9a 04 be 2b 1f 85 3e 20 16 e1 bd
       0.15574871 -0.12949386 0.26000342 -0.10990548
000060 0d bf 60 3e 6d 4c 7a be fe e8 51 be 02 0a 9a be
       0.2194788 -0.24443217 -0.20499036 -0.3008576
000070 0d 2c 82 be c4 2a 3d 3e 23 2e 34 be 62 7f 66 3e
       -0.25424233 0.18473345 -0.17595725 0.2250953

decoder.4.weight f4 [64, 32]
000000 f8 2d d4 3e 26 a6 8a 3d cd 5c 42 bd 55 5d 10 3e
       0.4144132 0.067699715 -0.047451783 0.14098103
000010 f9 7d 34 3e b5 33 6f 3d 99 bd 20 3e 0d a2 84 bd
       0.1762618 0.05839892 0.15697326 -0.06476221
000020 29 07 95 bd 27 42 aa be 63 61 14 3e b0 c7 f6 3c
       -0.07276756 -0.33253595 0.14490275 0.030124515
000030 24 47 8c 3e 58 30 97 bd a3 7c 18 3e 0a f9 1a be
       0.27398026 -0.07382268 0.14891295 -0.15134063
000040 63 55 ad bd 16 61 b2 bd 41 56 27 3e 34 a4 df 3d
       -0.08463552 -0.08709924 0.16341497 0.10919991
000050 8f 73 e5 bd f0 d5 16 3d 92 8f 72 3c 70 5a 34 be
       -0.11203682 0.03682512 0.014804738 -0.17612624
000060 a0 b3 7a 3d 9f e2 a4 3d f0 20 1d bd 8a 30 8e 3d
       0.06120646 0.08051037 -0.03836149 0.06942852
000070 fb 28 78 bc 06 d6 12 3f 29 db 51 be 29 d9 21 bd
       -0.015146489 0.57357824 -0.20493759 -0.03951374
000080 25 ee bc be f6 38 a9 bd ee b1 42 3e 78 e7 68 bc
       -0.3690044 -0.082628176 0.19013187 -0.014215343
000090 42 0e 01 3c 9b 2f 2a 3d 8c e3 b8 3c 0c ea d1 bd
       0.0078769345 0.041549306 0.02256944 -0.10249719
0000a0 65 c2 38 3e f1 05 5b bc 23 1b 71 3d 4e e5 a9 3d
       0.18042906 -0.013368116 0.05886377 0.082956895
0000b0 cb cb f3 3d 8c 95 26 be 8a 82 0c be d1 2b 6b b9
       0.11904105 -0.16267985 -0.13721672 -0.0002242767
0000c0 2f 53 35 3e 50 3a b1 bd 60 9a 59 bc 8f 71 a4 be
       0.17707513 -0.086537 -0.013281435 -0.32117888
0000d0 39 66 36 3d ed bc 09 bc b7 fe 05 3e c4 e0 61 3d
       0.04453108 -0.00840686 0.13085447 0.055145994
0000e0 8e bf 32 3e dc 2a 26 be be 46 62 bd bb 3c ab be
       0.17455885 -0.16227287 -0.055243246 -0.3344477
0000f0 75 64 d6 3d a1 ab a7 3d e6 d9 ac bd aa 8d 81 bc
       0.104683794 0.081870325 -0.08439998 -0.015814621
000100 fd ee cc bc bc 01 78 bd 41 a7 99 3e 87 d1 65 3c
       -0.025016302 -0.06054853 0.30010417 0.014027006
000110 16 a9 fe bb 52 c2 7c bd 66 a6 0d 3d 47 d7 04 3e
       -0.0077716215 -0.061708756 0.034582518 0.12972747
000120 a7 c8 6a 3e b8 38 b6 3d 54 db 04 3e d1 9d 21 3e
       0.22928105 0.08897537 0.12974292 0.15782858
000130 6f 19 cc bc d5 75 f5 bd ea b0 9c 3d 42 85 86 3d
       -0.024914471 -0.11985365 0.07650931 0.06568386
000140 98 fd 2a 3f 21 08 1e be ba 7b b4 bd e5 44 82 bd
       0.66793203 -0.15432788 -0.088126615 -0.06360797
000150 91 9e 03 3c 5d 24 05 3e 56 3c fe bc c0 e8 61 3b
       0.008033411 0.13002153 -0.03103463 0.0034471005
000160 f1 e3 a6 bd a4 9c f4 bd 72 cc 6b bd 8d 97 98 bd
       -0.08148945 -0.11943939 -0.05756802 -0.07450781
000170 4d 4b 4e bd 7f 52 53 3e ef 7b b9 3d 5b 5f e9 bd
       -0.05036478 0.20636939 0.090568416 -0.11395141
000180 06 1d 33 3c 07 04 0c 3e 34 1a 75 bd 88 d3 b2 bc
       0.010932213 0.13673411 -0.059839442 -0.021829382
000190 02 b7 3d 3d 29 30 01 bd 2b 32 e8 3d 00 a2 83 bd
       0.046317108 -0.03154007 0.11337694 -0.064273834
0001a0 fa 26 3f be 16 92 ba 3d 91 52 c2 3d 9a d9 ca bd
       -0.18667212 0.09109895 0.094884045 -0.099047855
0001b0 bd 97 24 3d b7 b0 0c be 00 48 48 3a 27 3d f7 3d
       0.04018377 -0.13739286 0.00076401234 0.12072211
0001c0 fd c6 26 3e 90 8a 7a 3c 1e 0d 33 be 36 cd bc bc
       0.16286846 0.015291825 -0.17485473 -0.023047071
0001d0 74 b7 20 3d 44 30 a2 bc 6c 91 52 3d 00 06 fc 3b
       0.039237455 -0.019798405 0.051408216 0.007691145
0001e0 fb 03 ef bd 03 b2 12 3e f5 f2 0c be b9 77 03 bf
       -0.11670681 0.14325719 -0.13764556 -0.5135456
0001f0 41 c2 1b 3e 1a f5 9f 3d 64 ee 20 3e 55 63 71 3e
       0.1521082 0.07810421 0.15715939 0.23573048
000200 e3 55 40 be fc fb 53 bd 3a 3f a4 3d 22 2b 30 be
       -0.18782763 -0.051753983 0.08019872 -0.17203954
000210 78 90 f8 3d 10 c9 47 3e be 98 b1 3c 38 15 8b bc
       0.1213693 0.19510293 0.021679278 -0.016977891
000220 65 07 8c bc 94 cd 51 3c e9 66 5f bd b2 88 19 be
       -0.01709337 0.012805361 -0.054541502 -0.14993551
000230 9a c6 63 be 02 9e 02 be 45 91 33 be 0d ad f3 3d
       -0.22243729 -0.12755588 -0.17535885 0.11898241
000240 d7 02 1d 3e 5a de 89 bd d6 e9 c7 bd 66 e8 20 3e
       0.15333115 -0.06731863 -0.097613975 0.15713653
000250 b0 c4 25 3e 74 c7 2b 3d 61 1e 89 bb 75 ee 34 3e
       0.16188312 0.04193826 -0.0041845297 0.17669089
000260 b0 4c 03 be f6 21 35 3e 80 d6 8f 3c 89 38 9a 3d
       -0.12822223 0.17688736 0.017558336 0.075303145
000270 b2 55 ef 3d 71 a0 94 bd b7 d4 59 3d a7 ca 3c 3e
       0.11686267 -0.07257164 0.053181376 0.1843668
000280 93 40 aa be a4 ba 50 3e 06 e4 3f be 48 5a fe bd
       -0.3325239 0.20383698 -0.18739328 -0.124195635
000290 e9 a1 0c be 5b cb 86 3d cb 88 bd bd 80 cf 66 3c
       -0.13733639 0.06581756 -0.09254607 0.014087558
0002a0 57 3e 9d be fe 38 06 be 53 27 87 3e 6a 6a e4 bd
       -0.30711624 -0.13107678 0.2639719 -0.11153109
0002b0 c1 b0 9f be 91 2a 07 bf 25 14 23 3e 46 bd 4f 3e
       -0.3118954 -0.52799326 0.15925653 0.20287046
0002c0 0a b5 87 3d c2 0f c6 3d 0e d3 00 be 24 87 a7 be
       0.06626327 0.09670974 -0.12580511 -0.32720292
0002d0 eb f5 1a be fc 8b 19 3e f6 e7 17 bd 36 d3 0e be
       -0.15132873 0.14994806 -0.03708645 -0.13947758
0002e0 6c 93 1b bd 39 7d 07 be 8c 34 fa bd f2 66 a2 be
       -0.03798239 -0.13231362 -0.12217054 -0.31719166
0002f0 6e 7c c7 3e cd f6 d7 3d a1 7d 17 bf ef ef df 3c
       0.3896212 0.105451204 -0.5917607 0.027336089
000300 a0 1c 01 3d d4 63 07 3d 55 9c 8e bd a8 4e 8a bc
       0.03152144 0.033054188 -0.06963412 -0.01688321
000310 ff 9f 04 be 5e 21 cd 3d 05 a9 1e be 80 76 fc bb
       -0.12951659 0.1001613 -0.15494163 -0.007704556
000320 ea 3c b4 bd 52 51 63 bd 90 be 30 be 80 c2 6e 3c
       -0.08800681 -0.055497475 -0.17260194 0.01457274
000330 c2 4e e3 3d 00 30 74 b9 ab a9 31 3e 9e 54 9b 3d
       0.11099006 -0.00023287535 0.1734988 0.07584499
000340 1c b1 0e bd a0 af af 3c 80 ea f9 3b ee ce df bd
       -0.034836873 0.02144605 0.0076268315 -0.109281406
000350 d0 b6 92 bc 24 bd 29 3d fe c9 b7 3d 3e 31 ef 3d
       -0.017909437 0.041440144 0.08974074 0.11679314
000360 e0 a3 d0 3b 7e 02 a9 bd 80 f0 ac 3a 34 b9 48 bd
       0.0063671917 -0.082524285 0.0013194233 -0.04900475
000370 d3 3f 0e 3e f0 eb 10 bc c0 d4 b1 bb 2b a0 ba bd
       0.13891535 -0.008845314 -0.005426973 -0.09112581
000380 ae 1e 62 bd 34 4e 14 be d0 4b 14 3d c0 14 4f bd
       -0.05520504 -0.14482957 0.036205113 -0.050556898
000390 f0 68 44 bc 7b a4 8b bd 8a 3a dc bd bc 75 84 3d
       -0.01198791 -0.068184815 -0.10753353 0.064677685
0003a0 9e 16 1e be c8 7f eb bd d8 d7 21 be 9c a4 c2 bd
       -0.15438315 -0.11498982 -0.15804994 -0.09504053
0003b0 30 70 16 3d 10 a4 a7 bc 08 15 10 bd c8 0b ac bc
       0.036728084 -0.020463973 -0.035176307 -0.021001711
0003c0 10 36 f4 3c 40 22 7d 3d 1f bc ea bd 20 a7 2c 3d
       0.029810935 0.06180024 -0.114616625 0.04215157
0003d0 7d 20 23 3e a8 2d dd 3c cf 09 1c be a4 7a 29 3d
       0.15930362 0.02699931 -0.15238117 0.041376725
0003e0 a0 ce 28 bc f0 39 65 3c fa 5c f7 3d f8 6d 16 bd
       -0.0103031695 0.013990864 0.12078281 -0.036725968
0003f0 54 06 52 3d 0a f6 c7 3d 8f 6c e2 bd ae 86 b1 3d
       0.051275566 0.09763725 -0.11055862 0.08668266

decoder.4.bias f4 [64]
000000 d4 1a 15 bc 2c 70 ef 3d 93 cc 63 3e 3c ad 5b bc
       -0.009100635 0.11691317 0.22246008 -0.0134080015
000010 c1 3a 22 3e cf 94 0e 3e 48 f7 03 be 0c c1 33 bd
       0.15842725 0.13923953 -0.12887299 -0.043885276
000020 97 30 21 3e 59 80 02 bd 84 14 bf bd e5 72 ba 3d
       0.15741192 -0.031860683 -0.09330085 0.09103946
000030 44 62 6a 3c e7 2d 0a 3e 9c 8d e0 3d 49 d0 4f 3c
       0.014305655 0.13494073 0.1096451 0.012683936
000040 ec cd 34 3e e5 ad 5d 3d 52 d5 2a 3e 69 cb bc bd
       0.17656678 0.054120917 0.16682938 -0.09218485
000050 c2 8d 93 3d 45 66 6c bc ce 1a 80 bd 00 30 52 3b
       0.072047725 -0.01442868 -0.062551126 0.0032072067
000060 78 14 87 bc fc 17 af 3d 72 52 25 be 78 8a 11 3e
       -0.016489252 0.085494965 -0.16144732 0.14212978
000070 3d 47 ab 3b 3c 8e 0a 3e 0c 82 85 3d 4a 45 17 3e
       0.005226998 0.1353082 0.06518945 0.14772525
000080 15 41 8c be f6 39 b0 3d f8 44 5c 3e c1 c4 08 3e
       -0.27393404 0.08604805 0.21510684 0.13356306
000090 be 09 15 3d ac 27 c7 bd 1c eb 8f 3d 88 9b 7e bd
       0.036386244 -0.09724364 0.070272654 -0.062160045
0000a0 04 e5 e7 bc d4 cf 0c be 2b 73 da 3e 79 b9 1b 3e
       -0.028307445 -0.13751155 0.4266599 0.15207471
0000b0 6b 60 e5 3c be 0e 8d bd c2 6b b5 3c a0 45 3d 3e
       0.028000077 -0.068875775 0.02214611 0.18483591
0000c0 ef 19 52 be c4 c3 ca 3d d7 a1 cd 3d 62 95 db 3d
       -0.20517705 0.099006206 0.10040634 0.10721852
0000d0 3e 7c 15 be 3b 4b 28 3e 84 d4 5d be a0 55 20 3e
       -0.14598176 0.16434948 -0.216631 0.15657663
0000e0 da fe a7 bd 72 ef 9e be 27 6d 80 3d 83 74 25 3e
       -0.08202906 -0.31042057 0.06270819 0.16157727
0000f0 01 2c 2e 3e 5e 8e 91 bd 0d 70 c3 3d a8 e5 8d 3d
       0.17008974 -0.071072325 0.09542856 0.06928569
